{
    "format": "graph-model",
    "generatedBy": "2.5.0",
    "convertedBy": "TensorFlow.js Converter v3.3.0",
    "signature": {
        "inputs": {
            "input_tensor:0": {
                "name": "input_tensor:0",
                "dtype": "DT_UINT8",
                "tensorShape": {"dim": [{"size": "1"}, {"size": "-1"}, {"size": "-1"}, {"size": "3"}]}
            }
        },
        "outputs": {
            "Identity_6:0": {
                "name": "Identity_6:0",
                "dtype": "DT_FLOAT",
                "tensorShape": {"dim": [{"size": "1"}, {"size": "51150"}, {"size": "4"}]}
            },
            "Identity_2:0": {
                "name": "Identity_2:0",
                "dtype": "DT_FLOAT",
                "tensorShape": {"dim": [{"size": "1"}, {"size": "100"}]}
            },
            "Identity_4:0": {
                "name": "Identity_4:0",
                "dtype": "DT_FLOAT",
                "tensorShape": {"dim": [{"size": "1"}, {"size": "100"}]}
            },
            "Identity_1:0": {
                "name": "Identity_1:0",
                "dtype": "DT_FLOAT",
                "tensorShape": {"dim": [{"size": "1"}, {"size": "100"}, {"size": "4"}]}
            },
            "Identity:0": {
                "name": "Identity:0",
                "dtype": "DT_FLOAT",
                "tensorShape": {"dim": [{"size": "1"}, {"size": "100"}]}
            },
            "Identity_3:0": {
                "name": "Identity_3:0",
                "dtype": "DT_FLOAT",
                "tensorShape": {"dim": [{"size": "1"}, {"size": "100"}, {"size": "26"}]}
            },
            "Identity_7:0": {
                "name": "Identity_7:0",
                "dtype": "DT_FLOAT",
                "tensorShape": {"dim": [{"size": "1"}, {"size": "51150"}, {"size": "26"}]}
            },
            "Identity_5:0": {"name": "Identity_5:0", "dtype": "DT_FLOAT", "tensorShape": {"dim": [{"size": "1"}]}}
        }
    },
    "modelTopology": {
        "node": [
            {
                "name": "StatefulPartitionedCall/Postprocessor/BatchMultiClassNonMaxSuppression/PadOrClipBoxList/zeros_7",
                "op": "Const",
                "attr": {
                    "dtype": {"type": "DT_INT32"},
                    "value": {"tensor": {"dtype": "DT_INT32", "tensorShape": {"dim": [{"size": "1"}]}}}
                }
            },
            {
                "name": "StatefulPartitionedCall/Postprocessor/BatchMultiClassNonMaxSuppression/PadOrClipBoxList/sub_13/x",
                "op": "Const",
                "attr": {"value": {"tensor": {"dtype": "DT_INT32", "tensorShape": {}}}, "dtype": {"type": "DT_INT32"}}
            },
            {
                "name": "StatefulPartitionedCall/Postprocessor/BatchMultiClassNonMaxSuppression/PadOrClipBoxList/zeros_6",
                "op": "Const",
                "attr": {
                    "dtype": {"type": "DT_INT32"},
                    "value": {"tensor": {"dtype": "DT_INT32", "tensorShape": {"dim": [{"size": "1"}]}}}
                }
            },
            {
                "name": "StatefulPartitionedCall/Postprocessor/BatchMultiClassNonMaxSuppression/MultiClassNonMaxSuppression/Gather/GatherV2_3/axis",
                "op": "Const",
                "attr": {"value": {"tensor": {"dtype": "DT_INT32", "tensorShape": {}}}, "dtype": {"type": "DT_INT32"}}
            },
            {
                "name": "StatefulPartitionedCall/Postprocessor/BatchMultiClassNonMaxSuppression/MultiClassNonMaxSuppression/Gather_1/GatherV2_3/axis",
                "op": "Const",
                "attr": {"dtype": {"type": "DT_INT32"}, "value": {"tensor": {"dtype": "DT_INT32", "tensorShape": {}}}}
            },
            {
                "name": "StatefulPartitionedCall/Postprocessor/BatchMultiClassNonMaxSuppression/MultiClassNonMaxSuppression/Gather_2/GatherV2_3/axis",
                "op": "Const",
                "attr": {"value": {"tensor": {"dtype": "DT_INT32", "tensorShape": {}}}, "dtype": {"type": "DT_INT32"}}
            },
            {
                "name": "StatefulPartitionedCall/Postprocessor/BatchMultiClassNonMaxSuppression/MultiClassNonMaxSuppression/Gather_3/GatherV2_3/axis",
                "op": "Const",
                "attr": {"value": {"tensor": {"dtype": "DT_INT32", "tensorShape": {}}}, "dtype": {"type": "DT_INT32"}}
            },
            {
                "name": "StatefulPartitionedCall/Postprocessor/BatchMultiClassNonMaxSuppression/MultiClassNonMaxSuppression/Gather_4/GatherV2_3/axis",
                "op": "Const",
                "attr": {"dtype": {"type": "DT_INT32"}, "value": {"tensor": {"dtype": "DT_INT32", "tensorShape": {}}}}
            },
            {
                "name": "StatefulPartitionedCall/Postprocessor/BatchMultiClassNonMaxSuppression/MultiClassNonMaxSuppression/Gather_5/GatherV2_3/axis",
                "op": "Const",
                "attr": {"value": {"tensor": {"dtype": "DT_INT32", "tensorShape": {}}}, "dtype": {"type": "DT_INT32"}}
            },
            {
                "name": "StatefulPartitionedCall/Postprocessor/BatchMultiClassNonMaxSuppression/MultiClassNonMaxSuppression/Gather_6/GatherV2_3/axis",
                "op": "Const",
                "attr": {"dtype": {"type": "DT_INT32"}, "value": {"tensor": {"dtype": "DT_INT32", "tensorShape": {}}}}
            },
            {
                "name": "StatefulPartitionedCall/Postprocessor/BatchMultiClassNonMaxSuppression/MultiClassNonMaxSuppression/Gather_7/GatherV2_3/axis",
                "op": "Const",
                "attr": {"value": {"tensor": {"dtype": "DT_INT32", "tensorShape": {}}}, "dtype": {"type": "DT_INT32"}}
            },
            {
                "name": "StatefulPartitionedCall/Postprocessor/BatchMultiClassNonMaxSuppression/MultiClassNonMaxSuppression/Gather_8/GatherV2_3/axis",
                "op": "Const",
                "attr": {"value": {"tensor": {"dtype": "DT_INT32", "tensorShape": {}}}, "dtype": {"type": "DT_INT32"}}
            },
            {
                "name": "StatefulPartitionedCall/Postprocessor/BatchMultiClassNonMaxSuppression/MultiClassNonMaxSuppression/Gather_9/GatherV2_3/axis",
                "op": "Const",
                "attr": {"dtype": {"type": "DT_INT32"}, "value": {"tensor": {"dtype": "DT_INT32", "tensorShape": {}}}}
            },
            {
                "name": "StatefulPartitionedCall/Postprocessor/BatchMultiClassNonMaxSuppression/MultiClassNonMaxSuppression/Gather_10/GatherV2_3/axis",
                "op": "Const",
                "attr": {"value": {"tensor": {"dtype": "DT_INT32", "tensorShape": {}}}, "dtype": {"type": "DT_INT32"}}
            },
            {
                "name": "StatefulPartitionedCall/Postprocessor/BatchMultiClassNonMaxSuppression/MultiClassNonMaxSuppression/Gather_11/GatherV2_3/axis",
                "op": "Const",
                "attr": {"dtype": {"type": "DT_INT32"}, "value": {"tensor": {"dtype": "DT_INT32", "tensorShape": {}}}}
            },
            {
                "name": "StatefulPartitionedCall/Postprocessor/BatchMultiClassNonMaxSuppression/MultiClassNonMaxSuppression/Gather_12/GatherV2_3/axis",
                "op": "Const",
                "attr": {"dtype": {"type": "DT_INT32"}, "value": {"tensor": {"dtype": "DT_INT32", "tensorShape": {}}}}
            },
            {
                "name": "StatefulPartitionedCall/Postprocessor/BatchMultiClassNonMaxSuppression/MultiClassNonMaxSuppression/Gather_13/GatherV2_3/axis",
                "op": "Const",
                "attr": {"value": {"tensor": {"dtype": "DT_INT32", "tensorShape": {}}}, "dtype": {"type": "DT_INT32"}}
            },
            {
                "name": "StatefulPartitionedCall/Postprocessor/BatchMultiClassNonMaxSuppression/MultiClassNonMaxSuppression/Gather_14/GatherV2_3/axis",
                "op": "Const",
                "attr": {"dtype": {"type": "DT_INT32"}, "value": {"tensor": {"dtype": "DT_INT32", "tensorShape": {}}}}
            },
            {
                "name": "StatefulPartitionedCall/Postprocessor/BatchMultiClassNonMaxSuppression/MultiClassNonMaxSuppression/Gather_15/GatherV2_3/axis",
                "op": "Const",
                "attr": {"dtype": {"type": "DT_INT32"}, "value": {"tensor": {"dtype": "DT_INT32", "tensorShape": {}}}}
            },
            {
                "name": "StatefulPartitionedCall/Postprocessor/BatchMultiClassNonMaxSuppression/MultiClassNonMaxSuppression/Gather_16/GatherV2_3/axis",
                "op": "Const",
                "attr": {"dtype": {"type": "DT_INT32"}, "value": {"tensor": {"dtype": "DT_INT32", "tensorShape": {}}}}
            },
            {
                "name": "StatefulPartitionedCall/Postprocessor/BatchMultiClassNonMaxSuppression/MultiClassNonMaxSuppression/Gather_17/GatherV2_3/axis",
                "op": "Const",
                "attr": {"dtype": {"type": "DT_INT32"}, "value": {"tensor": {"dtype": "DT_INT32", "tensorShape": {}}}}
            },
            {
                "name": "StatefulPartitionedCall/Postprocessor/BatchMultiClassNonMaxSuppression/MultiClassNonMaxSuppression/Gather_18/GatherV2_3/axis",
                "op": "Const",
                "attr": {"dtype": {"type": "DT_INT32"}, "value": {"tensor": {"dtype": "DT_INT32", "tensorShape": {}}}}
            },
            {
                "name": "StatefulPartitionedCall/Postprocessor/BatchMultiClassNonMaxSuppression/MultiClassNonMaxSuppression/Gather_19/GatherV2_3/axis",
                "op": "Const",
                "attr": {"dtype": {"type": "DT_INT32"}, "value": {"tensor": {"dtype": "DT_INT32", "tensorShape": {}}}}
            },
            {
                "name": "StatefulPartitionedCall/Postprocessor/BatchMultiClassNonMaxSuppression/MultiClassNonMaxSuppression/Gather_20/GatherV2_3/axis",
                "op": "Const",
                "attr": {"dtype": {"type": "DT_INT32"}, "value": {"tensor": {"dtype": "DT_INT32", "tensorShape": {}}}}
            },
            {
                "name": "StatefulPartitionedCall/Postprocessor/BatchMultiClassNonMaxSuppression/MultiClassNonMaxSuppression/Gather_21/GatherV2_3/axis",
                "op": "Const",
                "attr": {"value": {"tensor": {"dtype": "DT_INT32", "tensorShape": {}}}, "dtype": {"type": "DT_INT32"}}
            },
            {
                "name": "StatefulPartitionedCall/Postprocessor/BatchMultiClassNonMaxSuppression/MultiClassNonMaxSuppression/Gather_22/GatherV2_3/axis",
                "op": "Const",
                "attr": {"value": {"tensor": {"dtype": "DT_INT32", "tensorShape": {}}}, "dtype": {"type": "DT_INT32"}}
            },
            {
                "name": "StatefulPartitionedCall/Postprocessor/BatchMultiClassNonMaxSuppression/MultiClassNonMaxSuppression/Gather_23/GatherV2_3/axis",
                "op": "Const",
                "attr": {"value": {"tensor": {"dtype": "DT_INT32", "tensorShape": {}}}, "dtype": {"type": "DT_INT32"}}
            },
            {
                "name": "StatefulPartitionedCall/Postprocessor/BatchMultiClassNonMaxSuppression/Reshape_3",
                "op": "Const",
                "attr": {
                    "value": {"tensor": {"dtype": "DT_FLOAT", "tensorShape": {"dim": [{"size": "51150"}]}}},
                    "dtype": {"type": "DT_FLOAT"}
                }
            },
            {
                "name": "StatefulPartitionedCall/Postprocessor/BatchMultiClassNonMaxSuppression/MultiClassNonMaxSuppression/Gather_24/GatherV2_3/axis",
                "op": "Const",
                "attr": {"dtype": {"type": "DT_INT32"}, "value": {"tensor": {"dtype": "DT_INT32", "tensorShape": {}}}}
            },
            {
                "name": "StatefulPartitionedCall/Postprocessor/BatchMultiClassNonMaxSuppression/MultiClassNonMaxSuppression/Concatenate/concat_3/axis",
                "op": "Const",
                "attr": {"dtype": {"type": "DT_INT32"}, "value": {"tensor": {"dtype": "DT_INT32", "tensorShape": {}}}}
            },
            {
                "name": "StatefulPartitionedCall/Postprocessor/BatchMultiClassNonMaxSuppression/MultiClassNonMaxSuppression/SortByField/Gather/GatherV2_3/axis",
                "op": "Const",
                "attr": {"dtype": {"type": "DT_INT32"}, "value": {"tensor": {"dtype": "DT_INT32", "tensorShape": {}}}}
            },
            {
                "name": "StatefulPartitionedCall/Postprocessor/BatchMultiClassNonMaxSuppression/MultiClassNonMaxSuppression/ClipToWindow/Gather/GatherV2_3/axis",
                "op": "Const",
                "attr": {"dtype": {"type": "DT_INT32"}, "value": {"tensor": {"dtype": "DT_INT32", "tensorShape": {}}}}
            },
            {
                "name": "StatefulPartitionedCall/Postprocessor/BatchMultiClassNonMaxSuppression/MultiClassNonMaxSuppression/SortByField_1/Gather/GatherV2_3/axis",
                "op": "Const",
                "attr": {"dtype": {"type": "DT_INT32"}, "value": {"tensor": {"dtype": "DT_INT32", "tensorShape": {}}}}
            },
            {
                "name": "StatefulPartitionedCall/Postprocessor/BatchMultiClassNonMaxSuppression/MultiClassNonMaxSuppression/Gather_25/GatherV2_3/axis",
                "op": "Const",
                "attr": {"dtype": {"type": "DT_INT32"}, "value": {"tensor": {"dtype": "DT_INT32", "tensorShape": {}}}}
            },
            {
                "name": "StatefulPartitionedCall/Postprocessor/BatchMultiClassNonMaxSuppression/MultiClassNonMaxSuppression/Gather_26/GatherV2_3/axis",
                "op": "Const",
                "attr": {"value": {"tensor": {"dtype": "DT_INT32", "tensorShape": {}}}, "dtype": {"type": "DT_INT32"}}
            },
            {
                "name": "StatefulPartitionedCall/Postprocessor/BatchMultiClassNonMaxSuppression/PadOrClipBoxList/strided_slice_12/stack",
                "op": "Const",
                "attr": {
                    "value": {"tensor": {"dtype": "DT_INT32", "tensorShape": {"dim": [{"size": "1"}]}}},
                    "dtype": {"type": "DT_INT32"}
                }
            },
            {
                "name": "StatefulPartitionedCall/Postprocessor/BatchMultiClassNonMaxSuppression/PadOrClipBoxList/strided_slice_12/stack_1",
                "op": "Const",
                "attr": {
                    "dtype": {"type": "DT_INT32"},
                    "value": {"tensor": {"dtype": "DT_INT32", "tensorShape": {"dim": [{"size": "1"}]}}}
                }
            },
            {
                "name": "StatefulPartitionedCall/Postprocessor/BatchMultiClassNonMaxSuppression/PadOrClipBoxList/strided_slice_12/stack_2",
                "op": "Const",
                "attr": {
                    "dtype": {"type": "DT_INT32"},
                    "value": {"tensor": {"dtype": "DT_INT32", "tensorShape": {"dim": [{"size": "1"}]}}}
                }
            },
            {
                "name": "StatefulPartitionedCall/Postprocessor/BatchMultiClassNonMaxSuppression/PadOrClipBoxList/sub_12/y",
                "op": "Const",
                "attr": {"dtype": {"type": "DT_INT32"}, "value": {"tensor": {"dtype": "DT_INT32", "tensorShape": {}}}}
            },
            {
                "name": "StatefulPartitionedCall/Postprocessor/BatchMultiClassNonMaxSuppression/PadOrClipBoxList/Greater_6/y",
                "op": "Const",
                "attr": {"value": {"tensor": {"dtype": "DT_INT32", "tensorShape": {}}}, "dtype": {"type": "DT_INT32"}}
            },
            {
                "name": "StatefulPartitionedCall/Postprocessor/BatchMultiClassNonMaxSuppression/PadOrClipBoxList/Select_6/t",
                "op": "Const",
                "attr": {"value": {"tensor": {"dtype": "DT_INT32", "tensorShape": {}}}, "dtype": {"type": "DT_INT32"}}
            },
            {
                "name": "StatefulPartitionedCall/Postprocessor/BatchMultiClassNonMaxSuppression/PadOrClipBoxList/Select_6/e",
                "op": "Const",
                "attr": {"dtype": {"type": "DT_INT32"}, "value": {"tensor": {"dtype": "DT_INT32", "tensorShape": {}}}}
            },
            {
                "name": "StatefulPartitionedCall/Postprocessor/BatchMultiClassNonMaxSuppression/PadOrClipBoxList/strided_slice_13/stack",
                "op": "Const",
                "attr": {
                    "dtype": {"type": "DT_INT32"},
                    "value": {"tensor": {"dtype": "DT_INT32", "tensorShape": {"dim": [{"size": "1"}]}}}
                }
            },
            {
                "name": "StatefulPartitionedCall/Postprocessor/BatchMultiClassNonMaxSuppression/PadOrClipBoxList/strided_slice_13/stack_1",
                "op": "Const",
                "attr": {
                    "dtype": {"type": "DT_INT32"},
                    "value": {"tensor": {"dtype": "DT_INT32", "tensorShape": {"dim": [{"size": "1"}]}}}
                }
            },
            {
                "name": "StatefulPartitionedCall/Postprocessor/BatchMultiClassNonMaxSuppression/PadOrClipBoxList/strided_slice_13/stack_2",
                "op": "Const",
                "attr": {
                    "dtype": {"type": "DT_INT32"},
                    "value": {"tensor": {"dtype": "DT_INT32", "tensorShape": {"dim": [{"size": "1"}]}}}
                }
            },
            {
                "name": "StatefulPartitionedCall/Postprocessor/BatchMultiClassNonMaxSuppression/PadOrClipBoxList/zeros_1",
                "op": "Const",
                "attr": {
                    "dtype": {"type": "DT_INT32"},
                    "value": {"tensor": {"dtype": "DT_INT32", "tensorShape": {"dim": [{"size": "2"}]}}}
                }
            },
            {
                "name": "StatefulPartitionedCall/Postprocessor/BatchMultiClassNonMaxSuppression/PadOrClipBoxList/sub_2/x",
                "op": "Const",
                "attr": {"dtype": {"type": "DT_INT32"}, "value": {"tensor": {"dtype": "DT_INT32", "tensorShape": {}}}}
            },
            {
                "name": "StatefulPartitionedCall/Postprocessor/BatchMultiClassNonMaxSuppression/PadOrClipBoxList/strided_slice_2/stack",
                "op": "Const",
                "attr": {
                    "dtype": {"type": "DT_INT32"},
                    "value": {"tensor": {"dtype": "DT_INT32", "tensorShape": {"dim": [{"size": "1"}]}}}
                }
            },
            {
                "name": "StatefulPartitionedCall/Postprocessor/BatchMultiClassNonMaxSuppression/PadOrClipBoxList/strided_slice_2/stack_1",
                "op": "Const",
                "attr": {
                    "value": {"tensor": {"dtype": "DT_INT32", "tensorShape": {"dim": [{"size": "1"}]}}},
                    "dtype": {"type": "DT_INT32"}
                }
            },
            {
                "name": "StatefulPartitionedCall/Postprocessor/BatchMultiClassNonMaxSuppression/PadOrClipBoxList/strided_slice_2/stack_2",
                "op": "Const",
                "attr": {
                    "dtype": {"type": "DT_INT32"},
                    "value": {"tensor": {"dtype": "DT_INT32", "tensorShape": {"dim": [{"size": "1"}]}}}
                }
            },
            {
                "name": "StatefulPartitionedCall/Postprocessor/BatchMultiClassNonMaxSuppression/PadOrClipBoxList/sub_3/x",
                "op": "Const",
                "attr": {"value": {"tensor": {"dtype": "DT_INT32", "tensorShape": {}}}, "dtype": {"type": "DT_INT32"}}
            },
            {
                "name": "StatefulPartitionedCall/Postprocessor/BatchMultiClassNonMaxSuppression/PadOrClipBoxList/zeros",
                "op": "Const",
                "attr": {
                    "dtype": {"type": "DT_INT32"},
                    "value": {"tensor": {"dtype": "DT_INT32", "tensorShape": {"dim": [{"size": "2"}]}}}
                }
            },
            {
                "name": "StatefulPartitionedCall/Postprocessor/BatchMultiClassNonMaxSuppression/PadOrClipBoxList/strided_slice/stack",
                "op": "Const",
                "attr": {
                    "dtype": {"type": "DT_INT32"},
                    "value": {"tensor": {"dtype": "DT_INT32", "tensorShape": {"dim": [{"size": "1"}]}}}
                }
            },
            {
                "name": "StatefulPartitionedCall/Postprocessor/BatchMultiClassNonMaxSuppression/PadOrClipBoxList/strided_slice/stack_1",
                "op": "Const",
                "attr": {
                    "value": {"tensor": {"dtype": "DT_INT32", "tensorShape": {"dim": [{"size": "1"}]}}},
                    "dtype": {"type": "DT_INT32"}
                }
            },
            {
                "name": "StatefulPartitionedCall/Postprocessor/BatchMultiClassNonMaxSuppression/PadOrClipBoxList/strided_slice/stack_2",
                "op": "Const",
                "attr": {
                    "dtype": {"type": "DT_INT32"},
                    "value": {"tensor": {"dtype": "DT_INT32", "tensorShape": {"dim": [{"size": "1"}]}}}
                }
            },
            {
                "name": "StatefulPartitionedCall/Postprocessor/BatchMultiClassNonMaxSuppression/PadOrClipBoxList/sub/y",
                "op": "Const",
                "attr": {"value": {"tensor": {"dtype": "DT_INT32", "tensorShape": {}}}, "dtype": {"type": "DT_INT32"}}
            },
            {
                "name": "StatefulPartitionedCall/Postprocessor/BatchMultiClassNonMaxSuppression/PadOrClipBoxList/Greater/y",
                "op": "Const",
                "attr": {"dtype": {"type": "DT_INT32"}, "value": {"tensor": {"dtype": "DT_INT32", "tensorShape": {}}}}
            },
            {
                "name": "StatefulPartitionedCall/Postprocessor/BatchMultiClassNonMaxSuppression/PadOrClipBoxList/Select/t",
                "op": "Const",
                "attr": {"dtype": {"type": "DT_INT32"}, "value": {"tensor": {"dtype": "DT_INT32", "tensorShape": {}}}}
            },
            {
                "name": "StatefulPartitionedCall/Postprocessor/BatchMultiClassNonMaxSuppression/PadOrClipBoxList/Select/e",
                "op": "Const",
                "attr": {"dtype": {"type": "DT_INT32"}, "value": {"tensor": {"dtype": "DT_INT32", "tensorShape": {}}}}
            },
            {
                "name": "StatefulPartitionedCall/Postprocessor/BatchMultiClassNonMaxSuppression/MultiClassNonMaxSuppression/Gather_25/GatherV2_6/axis",
                "op": "Const",
                "attr": {"dtype": {"type": "DT_INT32"}, "value": {"tensor": {"dtype": "DT_INT32", "tensorShape": {}}}}
            },
            {
                "name": "StatefulPartitionedCall/Postprocessor/BatchMultiClassNonMaxSuppression/MultiClassNonMaxSuppression/Gather_26/GatherV2_6/axis",
                "op": "Const",
                "attr": {"value": {"tensor": {"dtype": "DT_INT32", "tensorShape": {}}}, "dtype": {"type": "DT_INT32"}}
            },
            {
                "name": "StatefulPartitionedCall/Postprocessor/BatchMultiClassNonMaxSuppression/PadOrClipBoxList/strided_slice_1/stack",
                "op": "Const",
                "attr": {
                    "value": {"tensor": {"dtype": "DT_INT32", "tensorShape": {"dim": [{"size": "1"}]}}},
                    "dtype": {"type": "DT_INT32"}
                }
            },
            {
                "name": "StatefulPartitionedCall/Postprocessor/BatchMultiClassNonMaxSuppression/PadOrClipBoxList/strided_slice_1/stack_1",
                "op": "Const",
                "attr": {
                    "value": {"tensor": {"dtype": "DT_INT32", "tensorShape": {"dim": [{"size": "1"}]}}},
                    "dtype": {"type": "DT_INT32"}
                }
            },
            {
                "name": "StatefulPartitionedCall/Postprocessor/BatchMultiClassNonMaxSuppression/PadOrClipBoxList/strided_slice_1/stack_2",
                "op": "Const",
                "attr": {
                    "dtype": {"type": "DT_INT32"},
                    "value": {"tensor": {"dtype": "DT_INT32", "tensorShape": {"dim": [{"size": "1"}]}}}
                }
            },
            {
                "name": "StatefulPartitionedCall/Postprocessor/BatchMultiClassNonMaxSuppression/PadOrClipBoxList/sub_1/y",
                "op": "Const",
                "attr": {"dtype": {"type": "DT_INT32"}, "value": {"tensor": {"dtype": "DT_INT32", "tensorShape": {}}}}
            },
            {
                "name": "StatefulPartitionedCall/Postprocessor/BatchMultiClassNonMaxSuppression/PadOrClipBoxList/Greater_1/y",
                "op": "Const",
                "attr": {"dtype": {"type": "DT_INT32"}, "value": {"tensor": {"dtype": "DT_INT32", "tensorShape": {}}}}
            },
            {
                "name": "StatefulPartitionedCall/Postprocessor/BatchMultiClassNonMaxSuppression/PadOrClipBoxList/Select_1/t",
                "op": "Const",
                "attr": {"value": {"tensor": {"dtype": "DT_INT32", "tensorShape": {}}}, "dtype": {"type": "DT_INT32"}}
            },
            {
                "name": "StatefulPartitionedCall/Postprocessor/BatchMultiClassNonMaxSuppression/PadOrClipBoxList/Select_1/e",
                "op": "Const",
                "attr": {"value": {"tensor": {"dtype": "DT_INT32", "tensorShape": {}}}, "dtype": {"type": "DT_INT32"}}
            },
            {
                "name": "StatefulPartitionedCall/Postprocessor/BatchMultiClassNonMaxSuppression/PadOrClipBoxList/strided_slice_3/stack",
                "op": "Const",
                "attr": {
                    "dtype": {"type": "DT_INT32"},
                    "value": {"tensor": {"dtype": "DT_INT32", "tensorShape": {"dim": [{"size": "1"}]}}}
                }
            },
            {
                "name": "StatefulPartitionedCall/Postprocessor/BatchMultiClassNonMaxSuppression/PadOrClipBoxList/strided_slice_3/stack_1",
                "op": "Const",
                "attr": {
                    "dtype": {"type": "DT_INT32"},
                    "value": {"tensor": {"dtype": "DT_INT32", "tensorShape": {"dim": [{"size": "1"}]}}}
                }
            },
            {
                "name": "StatefulPartitionedCall/Postprocessor/BatchMultiClassNonMaxSuppression/PadOrClipBoxList/strided_slice_3/stack_2",
                "op": "Const",
                "attr": {
                    "dtype": {"type": "DT_INT32"},
                    "value": {"tensor": {"dtype": "DT_INT32", "tensorShape": {"dim": [{"size": "1"}]}}}
                }
            },
            {
                "name": "StatefulPartitionedCall/Postprocessor/BatchMultiClassNonMaxSuppression/PadOrClipBoxList/zeros_11",
                "op": "Const",
                "attr": {
                    "dtype": {"type": "DT_INT32"},
                    "value": {"tensor": {"dtype": "DT_INT32", "tensorShape": {"dim": [{"size": "1"}]}}}
                }
            },
            {
                "name": "StatefulPartitionedCall/Postprocessor/BatchMultiClassNonMaxSuppression/PadOrClipBoxList/sub_19/x",
                "op": "Const",
                "attr": {"dtype": {"type": "DT_INT32"}, "value": {"tensor": {"dtype": "DT_INT32", "tensorShape": {}}}}
            },
            {
                "name": "StatefulPartitionedCall/Postprocessor/BatchMultiClassNonMaxSuppression/PadOrClipBoxList/zeros_10",
                "op": "Const",
                "attr": {
                    "value": {"tensor": {"dtype": "DT_INT32", "tensorShape": {"dim": [{"size": "1"}]}}},
                    "dtype": {"type": "DT_INT32"}
                }
            },
            {
                "name": "StatefulPartitionedCall/Postprocessor/BatchMultiClassNonMaxSuppression/MultiClassNonMaxSuppression/Concatenate/concat_5",
                "op": "Const",
                "attr": {
                    "value": {"tensor": {"dtype": "DT_FLOAT", "tensorShape": {"dim": [{"size": "2500"}]}}},
                    "dtype": {"type": "DT_FLOAT"}
                }
            },
            {
                "name": "StatefulPartitionedCall/Postprocessor/BatchMultiClassNonMaxSuppression/MultiClassNonMaxSuppression/SortByField/Gather/GatherV2_5/axis",
                "op": "Const",
                "attr": {"value": {"tensor": {"dtype": "DT_INT32", "tensorShape": {}}}, "dtype": {"type": "DT_INT32"}}
            },
            {
                "name": "StatefulPartitionedCall/Postprocessor/BatchMultiClassNonMaxSuppression/MultiClassNonMaxSuppression/ClipToWindow/Gather/GatherV2_5/axis",
                "op": "Const",
                "attr": {"dtype": {"type": "DT_INT32"}, "value": {"tensor": {"dtype": "DT_INT32", "tensorShape": {}}}}
            },
            {
                "name": "StatefulPartitionedCall/Postprocessor/BatchMultiClassNonMaxSuppression/MultiClassNonMaxSuppression/SortByField_1/Gather/GatherV2_5/axis",
                "op": "Const",
                "attr": {"dtype": {"type": "DT_INT32"}, "value": {"tensor": {"dtype": "DT_INT32", "tensorShape": {}}}}
            },
            {
                "name": "StatefulPartitionedCall/Postprocessor/BatchMultiClassNonMaxSuppression/MultiClassNonMaxSuppression/Gather_25/GatherV2_5/axis",
                "op": "Const",
                "attr": {"value": {"tensor": {"dtype": "DT_INT32", "tensorShape": {}}}, "dtype": {"type": "DT_INT32"}}
            },
            {
                "name": "StatefulPartitionedCall/Postprocessor/BatchMultiClassNonMaxSuppression/MultiClassNonMaxSuppression/Gather_26/GatherV2_5/axis",
                "op": "Const",
                "attr": {"dtype": {"type": "DT_INT32"}, "value": {"tensor": {"dtype": "DT_INT32", "tensorShape": {}}}}
            },
            {
                "name": "StatefulPartitionedCall/Postprocessor/BatchMultiClassNonMaxSuppression/PadOrClipBoxList/strided_slice_18/stack",
                "op": "Const",
                "attr": {
                    "value": {"tensor": {"dtype": "DT_INT32", "tensorShape": {"dim": [{"size": "1"}]}}},
                    "dtype": {"type": "DT_INT32"}
                }
            },
            {
                "name": "StatefulPartitionedCall/Postprocessor/BatchMultiClassNonMaxSuppression/PadOrClipBoxList/strided_slice_18/stack_1",
                "op": "Const",
                "attr": {
                    "value": {"tensor": {"dtype": "DT_INT32", "tensorShape": {"dim": [{"size": "1"}]}}},
                    "dtype": {"type": "DT_INT32"}
                }
            },
            {
                "name": "StatefulPartitionedCall/Postprocessor/BatchMultiClassNonMaxSuppression/PadOrClipBoxList/strided_slice_18/stack_2",
                "op": "Const",
                "attr": {
                    "dtype": {"type": "DT_INT32"},
                    "value": {"tensor": {"dtype": "DT_INT32", "tensorShape": {"dim": [{"size": "1"}]}}}
                }
            },
            {
                "name": "StatefulPartitionedCall/Postprocessor/BatchMultiClassNonMaxSuppression/PadOrClipBoxList/sub_18/y",
                "op": "Const",
                "attr": {"dtype": {"type": "DT_INT32"}, "value": {"tensor": {"dtype": "DT_INT32", "tensorShape": {}}}}
            },
            {
                "name": "StatefulPartitionedCall/Postprocessor/BatchMultiClassNonMaxSuppression/PadOrClipBoxList/Greater_9/y",
                "op": "Const",
                "attr": {"dtype": {"type": "DT_INT32"}, "value": {"tensor": {"dtype": "DT_INT32", "tensorShape": {}}}}
            },
            {
                "name": "StatefulPartitionedCall/Postprocessor/BatchMultiClassNonMaxSuppression/PadOrClipBoxList/Select_9/t",
                "op": "Const",
                "attr": {"value": {"tensor": {"dtype": "DT_INT32", "tensorShape": {}}}, "dtype": {"type": "DT_INT32"}}
            },
            {
                "name": "StatefulPartitionedCall/Postprocessor/BatchMultiClassNonMaxSuppression/PadOrClipBoxList/Select_9/e",
                "op": "Const",
                "attr": {"value": {"tensor": {"dtype": "DT_INT32", "tensorShape": {}}}, "dtype": {"type": "DT_INT32"}}
            },
            {
                "name": "StatefulPartitionedCall/Postprocessor/BatchMultiClassNonMaxSuppression/PadOrClipBoxList/strided_slice_19/stack",
                "op": "Const",
                "attr": {
                    "value": {"tensor": {"dtype": "DT_INT32", "tensorShape": {"dim": [{"size": "1"}]}}},
                    "dtype": {"type": "DT_INT32"}
                }
            },
            {
                "name": "StatefulPartitionedCall/Postprocessor/BatchMultiClassNonMaxSuppression/PadOrClipBoxList/strided_slice_19/stack_1",
                "op": "Const",
                "attr": {
                    "value": {"tensor": {"dtype": "DT_INT32", "tensorShape": {"dim": [{"size": "1"}]}}},
                    "dtype": {"type": "DT_INT32"}
                }
            },
            {
                "name": "StatefulPartitionedCall/Postprocessor/BatchMultiClassNonMaxSuppression/PadOrClipBoxList/strided_slice_19/stack_2",
                "op": "Const",
                "attr": {
                    "value": {"tensor": {"dtype": "DT_INT32", "tensorShape": {"dim": [{"size": "1"}]}}},
                    "dtype": {"type": "DT_INT32"}
                }
            },
            {
                "name": "StatefulPartitionedCall/add/y",
                "op": "Const",
                "attr": {"value": {"tensor": {"dtype": "DT_FLOAT", "tensorShape": {}}}, "dtype": {"type": "DT_FLOAT"}}
            },
            {
                "name": "StatefulPartitionedCall/Postprocessor/BatchMultiClassNonMaxSuppression/PadOrClipBoxList/zeros_9",
                "op": "Const",
                "attr": {
                    "value": {"tensor": {"dtype": "DT_INT32", "tensorShape": {"dim": [{"size": "2"}]}}},
                    "dtype": {"type": "DT_INT32"}
                }
            },
            {
                "name": "StatefulPartitionedCall/Postprocessor/BatchMultiClassNonMaxSuppression/PadOrClipBoxList/sub_16/x",
                "op": "Const",
                "attr": {"value": {"tensor": {"dtype": "DT_INT32", "tensorShape": {}}}, "dtype": {"type": "DT_INT32"}}
            },
            {
                "name": "StatefulPartitionedCall/Postprocessor/BatchMultiClassNonMaxSuppression/PadOrClipBoxList/strided_slice_16/stack",
                "op": "Const",
                "attr": {
                    "dtype": {"type": "DT_INT32"},
                    "value": {"tensor": {"dtype": "DT_INT32", "tensorShape": {"dim": [{"size": "1"}]}}}
                }
            },
            {
                "name": "StatefulPartitionedCall/Postprocessor/BatchMultiClassNonMaxSuppression/PadOrClipBoxList/strided_slice_16/stack_1",
                "op": "Const",
                "attr": {
                    "dtype": {"type": "DT_INT32"},
                    "value": {"tensor": {"dtype": "DT_INT32", "tensorShape": {"dim": [{"size": "1"}]}}}
                }
            },
            {
                "name": "StatefulPartitionedCall/Postprocessor/BatchMultiClassNonMaxSuppression/PadOrClipBoxList/strided_slice_16/stack_2",
                "op": "Const",
                "attr": {
                    "dtype": {"type": "DT_INT32"},
                    "value": {"tensor": {"dtype": "DT_INT32", "tensorShape": {"dim": [{"size": "1"}]}}}
                }
            },
            {
                "name": "StatefulPartitionedCall/Postprocessor/BatchMultiClassNonMaxSuppression/PadOrClipBoxList/sub_17/x",
                "op": "Const",
                "attr": {"dtype": {"type": "DT_INT32"}, "value": {"tensor": {"dtype": "DT_INT32", "tensorShape": {}}}}
            },
            {
                "name": "StatefulPartitionedCall/Postprocessor/BatchMultiClassNonMaxSuppression/PadOrClipBoxList/zeros_8",
                "op": "Const",
                "attr": {
                    "value": {"tensor": {"dtype": "DT_INT32", "tensorShape": {"dim": [{"size": "2"}]}}},
                    "dtype": {"type": "DT_INT32"}
                }
            },
            {
                "name": "StatefulPartitionedCall/Postprocessor/BatchMultiClassNonMaxSuppression/PadOrClipBoxList/strided_slice_14/stack",
                "op": "Const",
                "attr": {
                    "value": {"tensor": {"dtype": "DT_INT32", "tensorShape": {"dim": [{"size": "1"}]}}},
                    "dtype": {"type": "DT_INT32"}
                }
            },
            {
                "name": "StatefulPartitionedCall/Postprocessor/BatchMultiClassNonMaxSuppression/PadOrClipBoxList/strided_slice_14/stack_1",
                "op": "Const",
                "attr": {
                    "dtype": {"type": "DT_INT32"},
                    "value": {"tensor": {"dtype": "DT_INT32", "tensorShape": {"dim": [{"size": "1"}]}}}
                }
            },
            {
                "name": "StatefulPartitionedCall/Postprocessor/BatchMultiClassNonMaxSuppression/PadOrClipBoxList/strided_slice_14/stack_2",
                "op": "Const",
                "attr": {
                    "dtype": {"type": "DT_INT32"},
                    "value": {"tensor": {"dtype": "DT_INT32", "tensorShape": {"dim": [{"size": "1"}]}}}
                }
            },
            {
                "name": "StatefulPartitionedCall/Postprocessor/BatchMultiClassNonMaxSuppression/PadOrClipBoxList/sub_14/y",
                "op": "Const",
                "attr": {"dtype": {"type": "DT_INT32"}, "value": {"tensor": {"dtype": "DT_INT32", "tensorShape": {}}}}
            },
            {
                "name": "StatefulPartitionedCall/Postprocessor/BatchMultiClassNonMaxSuppression/PadOrClipBoxList/Greater_7/y",
                "op": "Const",
                "attr": {"dtype": {"type": "DT_INT32"}, "value": {"tensor": {"dtype": "DT_INT32", "tensorShape": {}}}}
            },
            {
                "name": "StatefulPartitionedCall/Postprocessor/BatchMultiClassNonMaxSuppression/PadOrClipBoxList/Select_7/t",
                "op": "Const",
                "attr": {"dtype": {"type": "DT_INT32"}, "value": {"tensor": {"dtype": "DT_INT32", "tensorShape": {}}}}
            },
            {
                "name": "StatefulPartitionedCall/Postprocessor/BatchMultiClassNonMaxSuppression/PadOrClipBoxList/Select_7/e",
                "op": "Const",
                "attr": {"value": {"tensor": {"dtype": "DT_INT32", "tensorShape": {}}}, "dtype": {"type": "DT_INT32"}}
            },
            {
                "name": "StatefulPartitionedCall/Postprocessor/BatchMultiClassNonMaxSuppression/MultiClassNonMaxSuppression/Gather/GatherV2_4/axis",
                "op": "Const",
                "attr": {"dtype": {"type": "DT_INT32"}, "value": {"tensor": {"dtype": "DT_INT32", "tensorShape": {}}}}
            },
            {
                "name": "StatefulPartitionedCall/Postprocessor/BatchMultiClassNonMaxSuppression/MultiClassNonMaxSuppression/Gather_1/GatherV2_4/axis",
                "op": "Const",
                "attr": {"dtype": {"type": "DT_INT32"}, "value": {"tensor": {"dtype": "DT_INT32", "tensorShape": {}}}}
            },
            {
                "name": "StatefulPartitionedCall/Postprocessor/BatchMultiClassNonMaxSuppression/MultiClassNonMaxSuppression/Gather_2/GatherV2_4/axis",
                "op": "Const",
                "attr": {"dtype": {"type": "DT_INT32"}, "value": {"tensor": {"dtype": "DT_INT32", "tensorShape": {}}}}
            },
            {
                "name": "StatefulPartitionedCall/Postprocessor/BatchMultiClassNonMaxSuppression/MultiClassNonMaxSuppression/Gather_3/GatherV2_4/axis",
                "op": "Const",
                "attr": {"value": {"tensor": {"dtype": "DT_INT32", "tensorShape": {}}}, "dtype": {"type": "DT_INT32"}}
            },
            {
                "name": "StatefulPartitionedCall/Postprocessor/BatchMultiClassNonMaxSuppression/MultiClassNonMaxSuppression/Gather_4/GatherV2_4/axis",
                "op": "Const",
                "attr": {"dtype": {"type": "DT_INT32"}, "value": {"tensor": {"dtype": "DT_INT32", "tensorShape": {}}}}
            },
            {
                "name": "StatefulPartitionedCall/Postprocessor/BatchMultiClassNonMaxSuppression/MultiClassNonMaxSuppression/Gather_5/GatherV2_4/axis",
                "op": "Const",
                "attr": {"value": {"tensor": {"dtype": "DT_INT32", "tensorShape": {}}}, "dtype": {"type": "DT_INT32"}}
            },
            {
                "name": "StatefulPartitionedCall/Postprocessor/BatchMultiClassNonMaxSuppression/MultiClassNonMaxSuppression/Gather_6/GatherV2_4/axis",
                "op": "Const",
                "attr": {"value": {"tensor": {"dtype": "DT_INT32", "tensorShape": {}}}, "dtype": {"type": "DT_INT32"}}
            },
            {
                "name": "StatefulPartitionedCall/Postprocessor/BatchMultiClassNonMaxSuppression/MultiClassNonMaxSuppression/Gather_7/GatherV2_4/axis",
                "op": "Const",
                "attr": {"dtype": {"type": "DT_INT32"}, "value": {"tensor": {"dtype": "DT_INT32", "tensorShape": {}}}}
            },
            {
                "name": "StatefulPartitionedCall/Postprocessor/BatchMultiClassNonMaxSuppression/MultiClassNonMaxSuppression/Gather_8/GatherV2_4/axis",
                "op": "Const",
                "attr": {"value": {"tensor": {"dtype": "DT_INT32", "tensorShape": {}}}, "dtype": {"type": "DT_INT32"}}
            },
            {
                "name": "StatefulPartitionedCall/Postprocessor/BatchMultiClassNonMaxSuppression/MultiClassNonMaxSuppression/Gather_9/GatherV2_4/axis",
                "op": "Const",
                "attr": {"value": {"tensor": {"dtype": "DT_INT32", "tensorShape": {}}}, "dtype": {"type": "DT_INT32"}}
            },
            {
                "name": "StatefulPartitionedCall/Postprocessor/BatchMultiClassNonMaxSuppression/MultiClassNonMaxSuppression/Gather_10/GatherV2_4/axis",
                "op": "Const",
                "attr": {"dtype": {"type": "DT_INT32"}, "value": {"tensor": {"dtype": "DT_INT32", "tensorShape": {}}}}
            },
            {
                "name": "StatefulPartitionedCall/Postprocessor/BatchMultiClassNonMaxSuppression/MultiClassNonMaxSuppression/Gather_11/GatherV2_4/axis",
                "op": "Const",
                "attr": {"dtype": {"type": "DT_INT32"}, "value": {"tensor": {"dtype": "DT_INT32", "tensorShape": {}}}}
            },
            {
                "name": "StatefulPartitionedCall/Postprocessor/BatchMultiClassNonMaxSuppression/MultiClassNonMaxSuppression/Gather_12/GatherV2_4/axis",
                "op": "Const",
                "attr": {"value": {"tensor": {"dtype": "DT_INT32", "tensorShape": {}}}, "dtype": {"type": "DT_INT32"}}
            },
            {
                "name": "StatefulPartitionedCall/Postprocessor/BatchMultiClassNonMaxSuppression/MultiClassNonMaxSuppression/Gather_13/GatherV2_4/axis",
                "op": "Const",
                "attr": {"dtype": {"type": "DT_INT32"}, "value": {"tensor": {"dtype": "DT_INT32", "tensorShape": {}}}}
            },
            {
                "name": "StatefulPartitionedCall/Postprocessor/BatchMultiClassNonMaxSuppression/MultiClassNonMaxSuppression/Gather_14/GatherV2_4/axis",
                "op": "Const",
                "attr": {"dtype": {"type": "DT_INT32"}, "value": {"tensor": {"dtype": "DT_INT32", "tensorShape": {}}}}
            },
            {
                "name": "StatefulPartitionedCall/Postprocessor/BatchMultiClassNonMaxSuppression/MultiClassNonMaxSuppression/Gather_15/GatherV2_4/axis",
                "op": "Const",
                "attr": {"value": {"tensor": {"dtype": "DT_INT32", "tensorShape": {}}}, "dtype": {"type": "DT_INT32"}}
            },
            {
                "name": "StatefulPartitionedCall/Postprocessor/BatchMultiClassNonMaxSuppression/MultiClassNonMaxSuppression/Gather_16/GatherV2_4/axis",
                "op": "Const",
                "attr": {"dtype": {"type": "DT_INT32"}, "value": {"tensor": {"dtype": "DT_INT32", "tensorShape": {}}}}
            },
            {
                "name": "StatefulPartitionedCall/Postprocessor/BatchMultiClassNonMaxSuppression/MultiClassNonMaxSuppression/Gather_17/GatherV2_4/axis",
                "op": "Const",
                "attr": {"value": {"tensor": {"dtype": "DT_INT32", "tensorShape": {}}}, "dtype": {"type": "DT_INT32"}}
            },
            {
                "name": "StatefulPartitionedCall/Postprocessor/BatchMultiClassNonMaxSuppression/MultiClassNonMaxSuppression/Gather_18/GatherV2_4/axis",
                "op": "Const",
                "attr": {"dtype": {"type": "DT_INT32"}, "value": {"tensor": {"dtype": "DT_INT32", "tensorShape": {}}}}
            },
            {
                "name": "StatefulPartitionedCall/Postprocessor/BatchMultiClassNonMaxSuppression/MultiClassNonMaxSuppression/Gather_19/GatherV2_4/axis",
                "op": "Const",
                "attr": {"dtype": {"type": "DT_INT32"}, "value": {"tensor": {"dtype": "DT_INT32", "tensorShape": {}}}}
            },
            {
                "name": "StatefulPartitionedCall/Postprocessor/BatchMultiClassNonMaxSuppression/MultiClassNonMaxSuppression/Gather_20/GatherV2_4/axis",
                "op": "Const",
                "attr": {"dtype": {"type": "DT_INT32"}, "value": {"tensor": {"dtype": "DT_INT32", "tensorShape": {}}}}
            },
            {
                "name": "StatefulPartitionedCall/Postprocessor/BatchMultiClassNonMaxSuppression/MultiClassNonMaxSuppression/Gather_21/GatherV2_4/axis",
                "op": "Const",
                "attr": {"value": {"tensor": {"dtype": "DT_INT32", "tensorShape": {}}}, "dtype": {"type": "DT_INT32"}}
            },
            {
                "name": "StatefulPartitionedCall/Postprocessor/BatchMultiClassNonMaxSuppression/MultiClassNonMaxSuppression/Gather_22/GatherV2_4/axis",
                "op": "Const",
                "attr": {"dtype": {"type": "DT_INT32"}, "value": {"tensor": {"dtype": "DT_INT32", "tensorShape": {}}}}
            },
            {
                "name": "StatefulPartitionedCall/Postprocessor/BatchMultiClassNonMaxSuppression/MultiClassNonMaxSuppression/Gather_23/GatherV2_4/axis",
                "op": "Const",
                "attr": {"value": {"tensor": {"dtype": "DT_INT32", "tensorShape": {}}}, "dtype": {"type": "DT_INT32"}}
            },
            {
                "name": "StatefulPartitionedCall/Postprocessor/BatchMultiClassNonMaxSuppression/MultiClassNonMaxSuppression/Gather_24/GatherV2_4/axis",
                "op": "Const",
                "attr": {"dtype": {"type": "DT_INT32"}, "value": {"tensor": {"dtype": "DT_INT32", "tensorShape": {}}}}
            },
            {
                "name": "StatefulPartitionedCall/Postprocessor/BatchMultiClassNonMaxSuppression/MultiClassNonMaxSuppression/Concatenate/concat_4/axis",
                "op": "Const",
                "attr": {"value": {"tensor": {"dtype": "DT_INT32", "tensorShape": {}}}, "dtype": {"type": "DT_INT32"}}
            },
            {
                "name": "StatefulPartitionedCall/Postprocessor/BatchMultiClassNonMaxSuppression/MultiClassNonMaxSuppression/SortByField/Gather/GatherV2_4/axis",
                "op": "Const",
                "attr": {"dtype": {"type": "DT_INT32"}, "value": {"tensor": {"dtype": "DT_INT32", "tensorShape": {}}}}
            },
            {
                "name": "StatefulPartitionedCall/Postprocessor/BatchMultiClassNonMaxSuppression/MultiClassNonMaxSuppression/ClipToWindow/Gather/GatherV2_4/axis",
                "op": "Const",
                "attr": {"value": {"tensor": {"dtype": "DT_INT32", "tensorShape": {}}}, "dtype": {"type": "DT_INT32"}}
            },
            {
                "name": "StatefulPartitionedCall/Postprocessor/BatchMultiClassNonMaxSuppression/MultiClassNonMaxSuppression/SortByField_1/Gather/GatherV2_4/axis",
                "op": "Const",
                "attr": {"dtype": {"type": "DT_INT32"}, "value": {"tensor": {"dtype": "DT_INT32", "tensorShape": {}}}}
            },
            {
                "name": "StatefulPartitionedCall/Postprocessor/BatchMultiClassNonMaxSuppression/MultiClassNonMaxSuppression/Gather_25/GatherV2_4/axis",
                "op": "Const",
                "attr": {"dtype": {"type": "DT_INT32"}, "value": {"tensor": {"dtype": "DT_INT32", "tensorShape": {}}}}
            },
            {
                "name": "StatefulPartitionedCall/Postprocessor/BatchMultiClassNonMaxSuppression/MultiClassNonMaxSuppression/Gather_26/GatherV2_4/axis",
                "op": "Const",
                "attr": {"value": {"tensor": {"dtype": "DT_INT32", "tensorShape": {}}}, "dtype": {"type": "DT_INT32"}}
            },
            {
                "name": "StatefulPartitionedCall/Postprocessor/BatchMultiClassNonMaxSuppression/PadOrClipBoxList/strided_slice_15/stack",
                "op": "Const",
                "attr": {
                    "value": {"tensor": {"dtype": "DT_INT32", "tensorShape": {"dim": [{"size": "1"}]}}},
                    "dtype": {"type": "DT_INT32"}
                }
            },
            {
                "name": "StatefulPartitionedCall/Postprocessor/BatchMultiClassNonMaxSuppression/PadOrClipBoxList/strided_slice_15/stack_1",
                "op": "Const",
                "attr": {
                    "value": {"tensor": {"dtype": "DT_INT32", "tensorShape": {"dim": [{"size": "1"}]}}},
                    "dtype": {"type": "DT_INT32"}
                }
            },
            {
                "name": "StatefulPartitionedCall/Postprocessor/BatchMultiClassNonMaxSuppression/PadOrClipBoxList/strided_slice_15/stack_2",
                "op": "Const",
                "attr": {
                    "dtype": {"type": "DT_INT32"},
                    "value": {"tensor": {"dtype": "DT_INT32", "tensorShape": {"dim": [{"size": "1"}]}}}
                }
            },
            {
                "name": "StatefulPartitionedCall/Postprocessor/BatchMultiClassNonMaxSuppression/PadOrClipBoxList/sub_15/y",
                "op": "Const",
                "attr": {"value": {"tensor": {"dtype": "DT_INT32", "tensorShape": {}}}, "dtype": {"type": "DT_INT32"}}
            },
            {
                "name": "StatefulPartitionedCall/Postprocessor/BatchMultiClassNonMaxSuppression/PadOrClipBoxList/Greater_8/y",
                "op": "Const",
                "attr": {"value": {"tensor": {"dtype": "DT_INT32", "tensorShape": {}}}, "dtype": {"type": "DT_INT32"}}
            },
            {
                "name": "StatefulPartitionedCall/Postprocessor/BatchMultiClassNonMaxSuppression/PadOrClipBoxList/Select_8/t",
                "op": "Const",
                "attr": {"value": {"tensor": {"dtype": "DT_INT32", "tensorShape": {}}}, "dtype": {"type": "DT_INT32"}}
            },
            {
                "name": "StatefulPartitionedCall/Postprocessor/BatchMultiClassNonMaxSuppression/PadOrClipBoxList/Select_8/e",
                "op": "Const",
                "attr": {"dtype": {"type": "DT_INT32"}, "value": {"tensor": {"dtype": "DT_INT32", "tensorShape": {}}}}
            },
            {
                "name": "StatefulPartitionedCall/Postprocessor/BatchMultiClassNonMaxSuppression/PadOrClipBoxList/strided_slice_17/stack",
                "op": "Const",
                "attr": {
                    "dtype": {"type": "DT_INT32"},
                    "value": {"tensor": {"dtype": "DT_INT32", "tensorShape": {"dim": [{"size": "1"}]}}}
                }
            },
            {
                "name": "StatefulPartitionedCall/Postprocessor/BatchMultiClassNonMaxSuppression/PadOrClipBoxList/strided_slice_17/stack_1",
                "op": "Const",
                "attr": {
                    "value": {"tensor": {"dtype": "DT_INT32", "tensorShape": {"dim": [{"size": "1"}]}}},
                    "dtype": {"type": "DT_INT32"}
                }
            },
            {
                "name": "StatefulPartitionedCall/Postprocessor/BatchMultiClassNonMaxSuppression/PadOrClipBoxList/strided_slice_17/stack_2",
                "op": "Const",
                "attr": {
                    "dtype": {"type": "DT_INT32"},
                    "value": {"tensor": {"dtype": "DT_INT32", "tensorShape": {"dim": [{"size": "1"}]}}}
                }
            },
            {
                "name": "StatefulPartitionedCall/Postprocessor/BatchMultiClassNonMaxSuppression/PadOrClipBoxList/zeros_3",
                "op": "Const",
                "attr": {
                    "value": {"tensor": {"dtype": "DT_INT32", "tensorShape": {"dim": [{"size": "1"}]}}},
                    "dtype": {"type": "DT_INT32"}
                }
            },
            {
                "name": "StatefulPartitionedCall/Postprocessor/BatchMultiClassNonMaxSuppression/PadOrClipBoxList/sub_5/x",
                "op": "Const",
                "attr": {"dtype": {"type": "DT_INT32"}, "value": {"tensor": {"dtype": "DT_INT32", "tensorShape": {}}}}
            },
            {
                "name": "StatefulPartitionedCall/Postprocessor/BatchMultiClassNonMaxSuppression/PadOrClipBoxList/zeros_2",
                "op": "Const",
                "attr": {
                    "value": {"tensor": {"dtype": "DT_INT32", "tensorShape": {"dim": [{"size": "1"}]}}},
                    "dtype": {"type": "DT_INT32"}
                }
            },
            {
                "name": "StatefulPartitionedCall/Postprocessor/BatchMultiClassNonMaxSuppression/MultiClassNonMaxSuppression/SortByField_1/Gather/GatherV2_1/axis",
                "op": "Const",
                "attr": {"value": {"tensor": {"dtype": "DT_INT32", "tensorShape": {}}}, "dtype": {"type": "DT_INT32"}}
            },
            {
                "name": "StatefulPartitionedCall/Postprocessor/BatchMultiClassNonMaxSuppression/MultiClassNonMaxSuppression/range_25/start",
                "op": "Const",
                "attr": {"dtype": {"type": "DT_INT32"}, "value": {"tensor": {"dtype": "DT_INT32", "tensorShape": {}}}}
            },
            {
                "name": "StatefulPartitionedCall/Postprocessor/BatchMultiClassNonMaxSuppression/MultiClassNonMaxSuppression/range_25/delta",
                "op": "Const",
                "attr": {"dtype": {"type": "DT_INT32"}, "value": {"tensor": {"dtype": "DT_INT32", "tensorShape": {}}}}
            },
            {
                "name": "StatefulPartitionedCall/Postprocessor/BatchMultiClassNonMaxSuppression/MultiClassNonMaxSuppression/Gather_25/GatherV2_1/axis",
                "op": "Const",
                "attr": {"dtype": {"type": "DT_INT32"}, "value": {"tensor": {"dtype": "DT_INT32", "tensorShape": {}}}}
            },
            {
                "name": "StatefulPartitionedCall/Postprocessor/BatchMultiClassNonMaxSuppression/MultiClassNonMaxSuppression/range_26/start",
                "op": "Const",
                "attr": {"dtype": {"type": "DT_INT32"}, "value": {"tensor": {"dtype": "DT_INT32", "tensorShape": {}}}}
            },
            {
                "name": "StatefulPartitionedCall/Postprocessor/BatchMultiClassNonMaxSuppression/MultiClassNonMaxSuppression/range_26/delta",
                "op": "Const",
                "attr": {"dtype": {"type": "DT_INT32"}, "value": {"tensor": {"dtype": "DT_INT32", "tensorShape": {}}}}
            },
            {
                "name": "StatefulPartitionedCall/Postprocessor/BatchMultiClassNonMaxSuppression/MultiClassNonMaxSuppression/Gather_26/GatherV2_1/axis",
                "op": "Const",
                "attr": {"value": {"tensor": {"dtype": "DT_INT32", "tensorShape": {}}}, "dtype": {"type": "DT_INT32"}}
            },
            {
                "name": "StatefulPartitionedCall/Postprocessor/BatchMultiClassNonMaxSuppression/PadOrClipBoxList/strided_slice_4/stack",
                "op": "Const",
                "attr": {
                    "dtype": {"type": "DT_INT32"},
                    "value": {"tensor": {"dtype": "DT_INT32", "tensorShape": {"dim": [{"size": "1"}]}}}
                }
            },
            {
                "name": "StatefulPartitionedCall/Postprocessor/BatchMultiClassNonMaxSuppression/PadOrClipBoxList/strided_slice_4/stack_1",
                "op": "Const",
                "attr": {
                    "dtype": {"type": "DT_INT32"},
                    "value": {"tensor": {"dtype": "DT_INT32", "tensorShape": {"dim": [{"size": "1"}]}}}
                }
            },
            {
                "name": "StatefulPartitionedCall/Postprocessor/BatchMultiClassNonMaxSuppression/PadOrClipBoxList/strided_slice_4/stack_2",
                "op": "Const",
                "attr": {
                    "dtype": {"type": "DT_INT32"},
                    "value": {"tensor": {"dtype": "DT_INT32", "tensorShape": {"dim": [{"size": "1"}]}}}
                }
            },
            {
                "name": "StatefulPartitionedCall/Postprocessor/BatchMultiClassNonMaxSuppression/PadOrClipBoxList/sub_4/y",
                "op": "Const",
                "attr": {"dtype": {"type": "DT_INT32"}, "value": {"tensor": {"dtype": "DT_INT32", "tensorShape": {}}}}
            },
            {
                "name": "StatefulPartitionedCall/Postprocessor/BatchMultiClassNonMaxSuppression/PadOrClipBoxList/Greater_2/y",
                "op": "Const",
                "attr": {"dtype": {"type": "DT_INT32"}, "value": {"tensor": {"dtype": "DT_INT32", "tensorShape": {}}}}
            },
            {
                "name": "StatefulPartitionedCall/Postprocessor/BatchMultiClassNonMaxSuppression/PadOrClipBoxList/Select_2/t",
                "op": "Const",
                "attr": {"value": {"tensor": {"dtype": "DT_INT32", "tensorShape": {}}}, "dtype": {"type": "DT_INT32"}}
            },
            {
                "name": "StatefulPartitionedCall/Postprocessor/BatchMultiClassNonMaxSuppression/PadOrClipBoxList/Select_2/e",
                "op": "Const",
                "attr": {"value": {"tensor": {"dtype": "DT_INT32", "tensorShape": {}}}, "dtype": {"type": "DT_INT32"}}
            },
            {
                "name": "StatefulPartitionedCall/Postprocessor/BatchMultiClassNonMaxSuppression/PadOrClipBoxList/strided_slice_5/stack",
                "op": "Const",
                "attr": {
                    "dtype": {"type": "DT_INT32"},
                    "value": {"tensor": {"dtype": "DT_INT32", "tensorShape": {"dim": [{"size": "1"}]}}}
                }
            },
            {
                "name": "StatefulPartitionedCall/Postprocessor/BatchMultiClassNonMaxSuppression/PadOrClipBoxList/strided_slice_5/stack_1",
                "op": "Const",
                "attr": {
                    "value": {"tensor": {"dtype": "DT_INT32", "tensorShape": {"dim": [{"size": "1"}]}}},
                    "dtype": {"type": "DT_INT32"}
                }
            },
            {
                "name": "StatefulPartitionedCall/Postprocessor/BatchMultiClassNonMaxSuppression/PadOrClipBoxList/strided_slice_5/stack_2",
                "op": "Const",
                "attr": {
                    "value": {"tensor": {"dtype": "DT_INT32", "tensorShape": {"dim": [{"size": "1"}]}}},
                    "dtype": {"type": "DT_INT32"}
                }
            },
            {
                "name": "StatefulPartitionedCall/Postprocessor/BatchMultiClassNonMaxSuppression/MultiClassNonMaxSuppression/GreaterEqual/y",
                "op": "Const",
                "attr": {"dtype": {"type": "DT_FLOAT"}, "value": {"tensor": {"dtype": "DT_FLOAT", "tensorShape": {}}}}
            },
            {
                "name": "StatefulPartitionedCall/Postprocessor/BatchMultiClassNonMaxSuppression/MultiClassNonMaxSuppression/Const_1",
                "op": "Const",
                "attr": {
                    "dtype": {"type": "DT_INT32"},
                    "value": {"tensor": {"dtype": "DT_INT32", "tensorShape": {"dim": [{"size": "1"}]}}}
                }
            },
            {
                "name": "StatefulPartitionedCall/Postprocessor/BatchMultiClassNonMaxSuppression/MultiClassNonMaxSuppression/Minimum_25/x",
                "op": "Const",
                "attr": {"dtype": {"type": "DT_INT32"}, "value": {"tensor": {"dtype": "DT_INT32", "tensorShape": {}}}}
            },
            {
                "name": "StatefulPartitionedCall/Postprocessor/BatchMultiClassNonMaxSuppression/MultiClassNonMaxSuppression/ChangeCoordinateFrame/strided_slice/stack",
                "op": "Const",
                "attr": {
                    "dtype": {"type": "DT_INT32"},
                    "value": {"tensor": {"dtype": "DT_INT32", "tensorShape": {"dim": [{"size": "1"}]}}}
                }
            },
            {
                "name": "StatefulPartitionedCall/Postprocessor/BatchMultiClassNonMaxSuppression/MultiClassNonMaxSuppression/ChangeCoordinateFrame/strided_slice/stack_1",
                "op": "Const",
                "attr": {
                    "dtype": {"type": "DT_INT32"},
                    "value": {"tensor": {"dtype": "DT_INT32", "tensorShape": {"dim": [{"size": "1"}]}}}
                }
            },
            {
                "name": "StatefulPartitionedCall/Postprocessor/BatchMultiClassNonMaxSuppression/MultiClassNonMaxSuppression/ChangeCoordinateFrame/strided_slice/stack_2",
                "op": "Const",
                "attr": {
                    "value": {"tensor": {"dtype": "DT_INT32", "tensorShape": {"dim": [{"size": "1"}]}}},
                    "dtype": {"type": "DT_INT32"}
                }
            },
            {
                "name": "StatefulPartitionedCall/Postprocessor/BatchMultiClassNonMaxSuppression/MultiClassNonMaxSuppression/ChangeCoordinateFrame/strided_slice_1/stack",
                "op": "Const",
                "attr": {
                    "value": {"tensor": {"dtype": "DT_INT32", "tensorShape": {"dim": [{"size": "1"}]}}},
                    "dtype": {"type": "DT_INT32"}
                }
            },
            {
                "name": "StatefulPartitionedCall/Postprocessor/BatchMultiClassNonMaxSuppression/MultiClassNonMaxSuppression/ChangeCoordinateFrame/strided_slice_1/stack_1",
                "op": "Const",
                "attr": {
                    "value": {"tensor": {"dtype": "DT_INT32", "tensorShape": {"dim": [{"size": "1"}]}}},
                    "dtype": {"type": "DT_INT32"}
                }
            },
            {
                "name": "StatefulPartitionedCall/Postprocessor/BatchMultiClassNonMaxSuppression/MultiClassNonMaxSuppression/ChangeCoordinateFrame/strided_slice_1/stack_2",
                "op": "Const",
                "attr": {
                    "value": {"tensor": {"dtype": "DT_INT32", "tensorShape": {"dim": [{"size": "1"}]}}},
                    "dtype": {"type": "DT_INT32"}
                }
            },
            {
                "name": "StatefulPartitionedCall/Postprocessor/BatchMultiClassNonMaxSuppression/MultiClassNonMaxSuppression/ChangeCoordinateFrame/strided_slice_2/stack",
                "op": "Const",
                "attr": {
                    "dtype": {"type": "DT_INT32"},
                    "value": {"tensor": {"dtype": "DT_INT32", "tensorShape": {"dim": [{"size": "1"}]}}}
                }
            },
            {
                "name": "StatefulPartitionedCall/Postprocessor/BatchMultiClassNonMaxSuppression/MultiClassNonMaxSuppression/ChangeCoordinateFrame/strided_slice_2/stack_1",
                "op": "Const",
                "attr": {
                    "dtype": {"type": "DT_INT32"},
                    "value": {"tensor": {"dtype": "DT_INT32", "tensorShape": {"dim": [{"size": "1"}]}}}
                }
            },
            {
                "name": "StatefulPartitionedCall/Postprocessor/BatchMultiClassNonMaxSuppression/MultiClassNonMaxSuppression/ChangeCoordinateFrame/strided_slice_2/stack_2",
                "op": "Const",
                "attr": {
                    "value": {"tensor": {"dtype": "DT_INT32", "tensorShape": {"dim": [{"size": "1"}]}}},
                    "dtype": {"type": "DT_INT32"}
                }
            },
            {
                "name": "StatefulPartitionedCall/Postprocessor/BatchMultiClassNonMaxSuppression/MultiClassNonMaxSuppression/ChangeCoordinateFrame/strided_slice_3/stack",
                "op": "Const",
                "attr": {
                    "dtype": {"type": "DT_INT32"},
                    "value": {"tensor": {"dtype": "DT_INT32", "tensorShape": {"dim": [{"size": "1"}]}}}
                }
            },
            {
                "name": "StatefulPartitionedCall/Postprocessor/BatchMultiClassNonMaxSuppression/MultiClassNonMaxSuppression/ChangeCoordinateFrame/strided_slice_3/stack_1",
                "op": "Const",
                "attr": {
                    "dtype": {"type": "DT_INT32"},
                    "value": {"tensor": {"dtype": "DT_INT32", "tensorShape": {"dim": [{"size": "1"}]}}}
                }
            },
            {
                "name": "StatefulPartitionedCall/Postprocessor/BatchMultiClassNonMaxSuppression/MultiClassNonMaxSuppression/ChangeCoordinateFrame/strided_slice_3/stack_2",
                "op": "Const",
                "attr": {
                    "value": {"tensor": {"dtype": "DT_INT32", "tensorShape": {"dim": [{"size": "1"}]}}},
                    "dtype": {"type": "DT_INT32"}
                }
            },
            {
                "name": "StatefulPartitionedCall/Postprocessor/BatchMultiClassNonMaxSuppression/MultiClassNonMaxSuppression/ChangeCoordinateFrame/Scale/split/split_dim",
                "op": "Const",
                "attr": {"value": {"tensor": {"dtype": "DT_INT32", "tensorShape": {}}}, "dtype": {"type": "DT_INT32"}}
            },
            {
                "name": "StatefulPartitionedCall/Postprocessor/BatchMultiClassNonMaxSuppression/MultiClassNonMaxSuppression/SortByField_1/Gather/GatherV2_6/axis",
                "op": "Const",
                "attr": {"value": {"tensor": {"dtype": "DT_INT32", "tensorShape": {}}}, "dtype": {"type": "DT_INT32"}}
            },
            {
                "name": "StatefulPartitionedCall/Postprocessor/BatchMultiClassNonMaxSuppression/MultiClassNonMaxSuppression/ChangeCoordinateFrame/strided_slice_4/stack",
                "op": "Const",
                "attr": {
                    "dtype": {"type": "DT_INT32"},
                    "value": {"tensor": {"dtype": "DT_INT32", "tensorShape": {"dim": [{"size": "1"}]}}}
                }
            },
            {
                "name": "StatefulPartitionedCall/Postprocessor/BatchMultiClassNonMaxSuppression/MultiClassNonMaxSuppression/ChangeCoordinateFrame/strided_slice_4/stack_1",
                "op": "Const",
                "attr": {
                    "value": {"tensor": {"dtype": "DT_INT32", "tensorShape": {"dim": [{"size": "1"}]}}},
                    "dtype": {"type": "DT_INT32"}
                }
            },
            {
                "name": "StatefulPartitionedCall/Postprocessor/BatchMultiClassNonMaxSuppression/MultiClassNonMaxSuppression/ChangeCoordinateFrame/strided_slice_4/stack_2",
                "op": "Const",
                "attr": {
                    "dtype": {"type": "DT_INT32"},
                    "value": {"tensor": {"dtype": "DT_INT32", "tensorShape": {"dim": [{"size": "1"}]}}}
                }
            },
            {
                "name": "StatefulPartitionedCall/Postprocessor/BatchMultiClassNonMaxSuppression/MultiClassNonMaxSuppression/ChangeCoordinateFrame/strided_slice_5/stack",
                "op": "Const",
                "attr": {
                    "dtype": {"type": "DT_INT32"},
                    "value": {"tensor": {"dtype": "DT_INT32", "tensorShape": {"dim": [{"size": "1"}]}}}
                }
            },
            {
                "name": "StatefulPartitionedCall/Postprocessor/BatchMultiClassNonMaxSuppression/MultiClassNonMaxSuppression/ChangeCoordinateFrame/strided_slice_5/stack_1",
                "op": "Const",
                "attr": {
                    "dtype": {"type": "DT_INT32"},
                    "value": {"tensor": {"dtype": "DT_INT32", "tensorShape": {"dim": [{"size": "1"}]}}}
                }
            },
            {
                "name": "StatefulPartitionedCall/Postprocessor/BatchMultiClassNonMaxSuppression/MultiClassNonMaxSuppression/ChangeCoordinateFrame/strided_slice_5/stack_2",
                "op": "Const",
                "attr": {
                    "value": {"tensor": {"dtype": "DT_INT32", "tensorShape": {"dim": [{"size": "1"}]}}},
                    "dtype": {"type": "DT_INT32"}
                }
            },
            {
                "name": "StatefulPartitionedCall/Postprocessor/BatchMultiClassNonMaxSuppression/MultiClassNonMaxSuppression/ChangeCoordinateFrame/strided_slice_6/stack",
                "op": "Const",
                "attr": {
                    "dtype": {"type": "DT_INT32"},
                    "value": {"tensor": {"dtype": "DT_INT32", "tensorShape": {"dim": [{"size": "1"}]}}}
                }
            },
            {
                "name": "StatefulPartitionedCall/Postprocessor/BatchMultiClassNonMaxSuppression/MultiClassNonMaxSuppression/ChangeCoordinateFrame/strided_slice_6/stack_1",
                "op": "Const",
                "attr": {
                    "value": {"tensor": {"dtype": "DT_INT32", "tensorShape": {"dim": [{"size": "1"}]}}},
                    "dtype": {"type": "DT_INT32"}
                }
            },
            {
                "name": "StatefulPartitionedCall/Postprocessor/BatchMultiClassNonMaxSuppression/MultiClassNonMaxSuppression/ChangeCoordinateFrame/strided_slice_6/stack_2",
                "op": "Const",
                "attr": {
                    "value": {"tensor": {"dtype": "DT_INT32", "tensorShape": {"dim": [{"size": "1"}]}}},
                    "dtype": {"type": "DT_INT32"}
                }
            },
            {
                "name": "StatefulPartitionedCall/Postprocessor/BatchMultiClassNonMaxSuppression/MultiClassNonMaxSuppression/ChangeCoordinateFrame/strided_slice_7/stack",
                "op": "Const",
                "attr": {
                    "value": {"tensor": {"dtype": "DT_INT32", "tensorShape": {"dim": [{"size": "1"}]}}},
                    "dtype": {"type": "DT_INT32"}
                }
            },
            {
                "name": "StatefulPartitionedCall/Postprocessor/BatchMultiClassNonMaxSuppression/MultiClassNonMaxSuppression/ChangeCoordinateFrame/strided_slice_7/stack_1",
                "op": "Const",
                "attr": {
                    "value": {"tensor": {"dtype": "DT_INT32", "tensorShape": {"dim": [{"size": "1"}]}}},
                    "dtype": {"type": "DT_INT32"}
                }
            },
            {
                "name": "StatefulPartitionedCall/Postprocessor/BatchMultiClassNonMaxSuppression/MultiClassNonMaxSuppression/ChangeCoordinateFrame/strided_slice_7/stack_2",
                "op": "Const",
                "attr": {
                    "dtype": {"type": "DT_INT32"},
                    "value": {"tensor": {"dtype": "DT_INT32", "tensorShape": {"dim": [{"size": "1"}]}}}
                }
            },
            {
                "name": "StatefulPartitionedCall/Postprocessor/BatchMultiClassNonMaxSuppression/MultiClassNonMaxSuppression/ChangeCoordinateFrame/Scale/concat/axis",
                "op": "Const",
                "attr": {"dtype": {"type": "DT_INT32"}, "value": {"tensor": {"dtype": "DT_INT32", "tensorShape": {}}}}
            },
            {
                "name": "StatefulPartitionedCall/Postprocessor/BatchMultiClassNonMaxSuppression/MultiClassNonMaxSuppression/strided_slice_52/stack",
                "op": "Const",
                "attr": {
                    "dtype": {"type": "DT_INT32"},
                    "value": {"tensor": {"dtype": "DT_INT32", "tensorShape": {"dim": [{"size": "1"}]}}}
                }
            },
            {
                "name": "StatefulPartitionedCall/Postprocessor/BatchMultiClassNonMaxSuppression/MultiClassNonMaxSuppression/strided_slice_52/stack_1",
                "op": "Const",
                "attr": {
                    "dtype": {"type": "DT_INT32"},
                    "value": {"tensor": {"dtype": "DT_INT32", "tensorShape": {"dim": [{"size": "1"}]}}}
                }
            },
            {
                "name": "StatefulPartitionedCall/Postprocessor/BatchMultiClassNonMaxSuppression/MultiClassNonMaxSuppression/strided_slice_52/stack_2",
                "op": "Const",
                "attr": {
                    "dtype": {"type": "DT_INT32"},
                    "value": {"tensor": {"dtype": "DT_INT32", "tensorShape": {"dim": [{"size": "1"}]}}}
                }
            },
            {
                "name": "StatefulPartitionedCall/Postprocessor/BatchMultiClassNonMaxSuppression/MultiClassNonMaxSuppression/SortByField_1/strided_slice/stack",
                "op": "Const",
                "attr": {
                    "value": {"tensor": {"dtype": "DT_INT32", "tensorShape": {"dim": [{"size": "1"}]}}},
                    "dtype": {"type": "DT_INT32"}
                }
            },
            {
                "name": "StatefulPartitionedCall/Postprocessor/BatchMultiClassNonMaxSuppression/MultiClassNonMaxSuppression/SortByField_1/strided_slice/stack_1",
                "op": "Const",
                "attr": {
                    "dtype": {"type": "DT_INT32"},
                    "value": {"tensor": {"dtype": "DT_INT32", "tensorShape": {"dim": [{"size": "1"}]}}}
                }
            },
            {
                "name": "StatefulPartitionedCall/Postprocessor/BatchMultiClassNonMaxSuppression/MultiClassNonMaxSuppression/SortByField_1/strided_slice/stack_2",
                "op": "Const",
                "attr": {
                    "value": {"tensor": {"dtype": "DT_INT32", "tensorShape": {"dim": [{"size": "1"}]}}},
                    "dtype": {"type": "DT_INT32"}
                }
            },
            {
                "name": "StatefulPartitionedCall/Postprocessor/BatchMultiClassNonMaxSuppression/MultiClassNonMaxSuppression/Area/split/split_dim",
                "op": "Const",
                "attr": {"value": {"tensor": {"dtype": "DT_INT32", "tensorShape": {}}}, "dtype": {"type": "DT_INT32"}}
            },
            {
                "name": "StatefulPartitionedCall/Postprocessor/BatchMultiClassNonMaxSuppression/MultiClassNonMaxSuppression/SortByField/Gather/GatherV2_1/axis",
                "op": "Const",
                "attr": {"value": {"tensor": {"dtype": "DT_INT32", "tensorShape": {}}}, "dtype": {"type": "DT_INT32"}}
            },
            {
                "name": "StatefulPartitionedCall/Postprocessor/BatchMultiClassNonMaxSuppression/MultiClassNonMaxSuppression/ClipToWindow/Gather/GatherV2_1/axis",
                "op": "Const",
                "attr": {"value": {"tensor": {"dtype": "DT_INT32", "tensorShape": {}}}, "dtype": {"type": "DT_INT32"}}
            },
            {
                "name": "StatefulPartitionedCall/Postprocessor/BatchMultiClassNonMaxSuppression/MultiClassNonMaxSuppression/mul_25/x",
                "op": "Const",
                "attr": {"dtype": {"type": "DT_FLOAT"}, "value": {"tensor": {"dtype": "DT_FLOAT", "tensorShape": {}}}}
            },
            {
                "name": "StatefulPartitionedCall/Postprocessor/BatchMultiClassNonMaxSuppression/MultiClassNonMaxSuppression/ClipToWindow/Area/split/split_dim",
                "op": "Const",
                "attr": {"value": {"tensor": {"dtype": "DT_INT32", "tensorShape": {}}}, "dtype": {"type": "DT_INT32"}}
            },
            {
                "name": "StatefulPartitionedCall/Postprocessor/BatchMultiClassNonMaxSuppression/MultiClassNonMaxSuppression/ClipToWindow/strided_slice_2/stack",
                "op": "Const",
                "attr": {
                    "dtype": {"type": "DT_INT32"},
                    "value": {"tensor": {"dtype": "DT_INT32", "tensorShape": {"dim": [{"size": "1"}]}}}
                }
            },
            {
                "name": "StatefulPartitionedCall/Postprocessor/BatchMultiClassNonMaxSuppression/MultiClassNonMaxSuppression/ClipToWindow/strided_slice_2/stack_1",
                "op": "Const",
                "attr": {
                    "value": {"tensor": {"dtype": "DT_INT32", "tensorShape": {"dim": [{"size": "1"}]}}},
                    "dtype": {"type": "DT_INT32"}
                }
            },
            {
                "name": "StatefulPartitionedCall/Postprocessor/BatchMultiClassNonMaxSuppression/MultiClassNonMaxSuppression/ClipToWindow/strided_slice_2/stack_2",
                "op": "Const",
                "attr": {
                    "value": {"tensor": {"dtype": "DT_INT32", "tensorShape": {"dim": [{"size": "1"}]}}},
                    "dtype": {"type": "DT_INT32"}
                }
            },
            {
                "name": "StatefulPartitionedCall/Postprocessor/BatchMultiClassNonMaxSuppression/MultiClassNonMaxSuppression/ClipToWindow/strided_slice/stack",
                "op": "Const",
                "attr": {
                    "value": {"tensor": {"dtype": "DT_INT32", "tensorShape": {"dim": [{"size": "1"}]}}},
                    "dtype": {"type": "DT_INT32"}
                }
            },
            {
                "name": "StatefulPartitionedCall/Postprocessor/BatchMultiClassNonMaxSuppression/MultiClassNonMaxSuppression/ClipToWindow/strided_slice/stack_1",
                "op": "Const",
                "attr": {
                    "dtype": {"type": "DT_INT32"},
                    "value": {"tensor": {"dtype": "DT_INT32", "tensorShape": {"dim": [{"size": "1"}]}}}
                }
            },
            {
                "name": "StatefulPartitionedCall/Postprocessor/BatchMultiClassNonMaxSuppression/MultiClassNonMaxSuppression/ClipToWindow/strided_slice/stack_2",
                "op": "Const",
                "attr": {
                    "dtype": {"type": "DT_INT32"},
                    "value": {"tensor": {"dtype": "DT_INT32", "tensorShape": {"dim": [{"size": "1"}]}}}
                }
            },
            {
                "name": "StatefulPartitionedCall/Postprocessor/BatchMultiClassNonMaxSuppression/MultiClassNonMaxSuppression/ClipToWindow/split/split_dim",
                "op": "Const",
                "attr": {"dtype": {"type": "DT_INT32"}, "value": {"tensor": {"dtype": "DT_INT32", "tensorShape": {}}}}
            },
            {
                "name": "StatefulPartitionedCall/Postprocessor/BatchMultiClassNonMaxSuppression/MultiClassNonMaxSuppression/range",
                "op": "Const",
                "attr": {
                    "dtype": {"type": "DT_INT32"},
                    "value": {"tensor": {"dtype": "DT_INT32", "tensorShape": {"dim": [{"size": "100"}]}}}
                }
            },
            {
                "name": "StatefulPartitionedCall/Postprocessor/BatchMultiClassNonMaxSuppression/MultiClassNonMaxSuppression/zeros_1/Reshape/shape",
                "op": "Const",
                "attr": {
                    "value": {"tensor": {"dtype": "DT_INT32", "tensorShape": {"dim": [{"size": "1"}]}}},
                    "dtype": {"type": "DT_INT32"}
                }
            },
            {
                "name": "StatefulPartitionedCall/Postprocessor/BatchMultiClassNonMaxSuppression/MultiClassNonMaxSuppression/zeros_1/Const",
                "op": "Const",
                "attr": {"value": {"tensor": {"dtype": "DT_FLOAT", "tensorShape": {}}}, "dtype": {"type": "DT_FLOAT"}}
            },
            {
                "name": "StatefulPartitionedCall/Postprocessor/BatchMultiClassNonMaxSuppression/MultiClassNonMaxSuppression/concat_1/axis",
                "op": "Const",
                "attr": {"value": {"tensor": {"dtype": "DT_INT32", "tensorShape": {}}}, "dtype": {"type": "DT_INT32"}}
            },
            {
                "name": "StatefulPartitionedCall/Postprocessor/BatchMultiClassNonMaxSuppression/MultiClassNonMaxSuppression/mul",
                "op": "Const",
                "attr": {
                    "dtype": {"type": "DT_FLOAT"},
                    "value": {"tensor": {"dtype": "DT_FLOAT", "tensorShape": {"dim": [{"size": "100"}]}}}
                }
            },
            {
                "name": "StatefulPartitionedCall/Postprocessor/BatchMultiClassNonMaxSuppression/MultiClassNonMaxSuppression/range_1",
                "op": "Const",
                "attr": {
                    "value": {"tensor": {"dtype": "DT_INT32", "tensorShape": {"dim": [{"size": "100"}]}}},
                    "dtype": {"type": "DT_INT32"}
                }
            },
            {
                "name": "StatefulPartitionedCall/Postprocessor/BatchMultiClassNonMaxSuppression/MultiClassNonMaxSuppression/zeros_3/Reshape/shape",
                "op": "Const",
                "attr": {
                    "dtype": {"type": "DT_INT32"},
                    "value": {"tensor": {"dtype": "DT_INT32", "tensorShape": {"dim": [{"size": "1"}]}}}
                }
            },
            {
                "name": "StatefulPartitionedCall/Postprocessor/BatchMultiClassNonMaxSuppression/MultiClassNonMaxSuppression/zeros_3/Const",
                "op": "Const",
                "attr": {"value": {"tensor": {"dtype": "DT_FLOAT", "tensorShape": {}}}, "dtype": {"type": "DT_FLOAT"}}
            },
            {
                "name": "StatefulPartitionedCall/Postprocessor/BatchMultiClassNonMaxSuppression/MultiClassNonMaxSuppression/concat_3/axis",
                "op": "Const",
                "attr": {"dtype": {"type": "DT_INT32"}, "value": {"tensor": {"dtype": "DT_INT32", "tensorShape": {}}}}
            },
            {
                "name": "StatefulPartitionedCall/Postprocessor/BatchMultiClassNonMaxSuppression/MultiClassNonMaxSuppression/mul_1",
                "op": "Const",
                "attr": {
                    "dtype": {"type": "DT_FLOAT"},
                    "value": {"tensor": {"dtype": "DT_FLOAT", "tensorShape": {"dim": [{"size": "100"}]}}}
                }
            },
            {
                "name": "StatefulPartitionedCall/Postprocessor/BatchMultiClassNonMaxSuppression/MultiClassNonMaxSuppression/range_2",
                "op": "Const",
                "attr": {
                    "value": {"tensor": {"dtype": "DT_INT32", "tensorShape": {"dim": [{"size": "100"}]}}},
                    "dtype": {"type": "DT_INT32"}
                }
            },
            {
                "name": "StatefulPartitionedCall/Postprocessor/BatchMultiClassNonMaxSuppression/MultiClassNonMaxSuppression/zeros_5/Reshape/shape",
                "op": "Const",
                "attr": {
                    "dtype": {"type": "DT_INT32"},
                    "value": {"tensor": {"dtype": "DT_INT32", "tensorShape": {"dim": [{"size": "1"}]}}}
                }
            },
            {
                "name": "StatefulPartitionedCall/Postprocessor/BatchMultiClassNonMaxSuppression/MultiClassNonMaxSuppression/zeros_5/Const",
                "op": "Const",
                "attr": {"dtype": {"type": "DT_FLOAT"}, "value": {"tensor": {"dtype": "DT_FLOAT", "tensorShape": {}}}}
            },
            {
                "name": "StatefulPartitionedCall/Postprocessor/BatchMultiClassNonMaxSuppression/MultiClassNonMaxSuppression/concat_5/axis",
                "op": "Const",
                "attr": {"dtype": {"type": "DT_INT32"}, "value": {"tensor": {"dtype": "DT_INT32", "tensorShape": {}}}}
            },
            {
                "name": "StatefulPartitionedCall/Postprocessor/BatchMultiClassNonMaxSuppression/MultiClassNonMaxSuppression/mul_2",
                "op": "Const",
                "attr": {
                    "dtype": {"type": "DT_FLOAT"},
                    "value": {"tensor": {"dtype": "DT_FLOAT", "tensorShape": {"dim": [{"size": "100"}]}}}
                }
            },
            {
                "name": "StatefulPartitionedCall/Postprocessor/BatchMultiClassNonMaxSuppression/MultiClassNonMaxSuppression/range_3",
                "op": "Const",
                "attr": {
                    "dtype": {"type": "DT_INT32"},
                    "value": {"tensor": {"dtype": "DT_INT32", "tensorShape": {"dim": [{"size": "100"}]}}}
                }
            },
            {
                "name": "StatefulPartitionedCall/Postprocessor/BatchMultiClassNonMaxSuppression/MultiClassNonMaxSuppression/zeros_7/Reshape/shape",
                "op": "Const",
                "attr": {
                    "value": {"tensor": {"dtype": "DT_INT32", "tensorShape": {"dim": [{"size": "1"}]}}},
                    "dtype": {"type": "DT_INT32"}
                }
            },
            {
                "name": "StatefulPartitionedCall/Postprocessor/BatchMultiClassNonMaxSuppression/MultiClassNonMaxSuppression/zeros_7/Const",
                "op": "Const",
                "attr": {"value": {"tensor": {"dtype": "DT_FLOAT", "tensorShape": {}}}, "dtype": {"type": "DT_FLOAT"}}
            },
            {
                "name": "StatefulPartitionedCall/Postprocessor/BatchMultiClassNonMaxSuppression/MultiClassNonMaxSuppression/concat_7/axis",
                "op": "Const",
                "attr": {"dtype": {"type": "DT_INT32"}, "value": {"tensor": {"dtype": "DT_INT32", "tensorShape": {}}}}
            },
            {
                "name": "StatefulPartitionedCall/Postprocessor/BatchMultiClassNonMaxSuppression/MultiClassNonMaxSuppression/mul_3",
                "op": "Const",
                "attr": {
                    "value": {"tensor": {"dtype": "DT_FLOAT", "tensorShape": {"dim": [{"size": "100"}]}}},
                    "dtype": {"type": "DT_FLOAT"}
                }
            },
            {
                "name": "StatefulPartitionedCall/Postprocessor/BatchMultiClassNonMaxSuppression/MultiClassNonMaxSuppression/range_4",
                "op": "Const",
                "attr": {
                    "value": {"tensor": {"dtype": "DT_INT32", "tensorShape": {"dim": [{"size": "100"}]}}},
                    "dtype": {"type": "DT_INT32"}
                }
            },
            {
                "name": "StatefulPartitionedCall/Postprocessor/BatchMultiClassNonMaxSuppression/MultiClassNonMaxSuppression/zeros_9/Reshape/shape",
                "op": "Const",
                "attr": {
                    "dtype": {"type": "DT_INT32"},
                    "value": {"tensor": {"dtype": "DT_INT32", "tensorShape": {"dim": [{"size": "1"}]}}}
                }
            },
            {
                "name": "StatefulPartitionedCall/Postprocessor/BatchMultiClassNonMaxSuppression/MultiClassNonMaxSuppression/zeros_9/Const",
                "op": "Const",
                "attr": {"value": {"tensor": {"dtype": "DT_FLOAT", "tensorShape": {}}}, "dtype": {"type": "DT_FLOAT"}}
            },
            {
                "name": "StatefulPartitionedCall/Postprocessor/BatchMultiClassNonMaxSuppression/MultiClassNonMaxSuppression/concat_9/axis",
                "op": "Const",
                "attr": {"dtype": {"type": "DT_INT32"}, "value": {"tensor": {"dtype": "DT_INT32", "tensorShape": {}}}}
            },
            {
                "name": "StatefulPartitionedCall/Postprocessor/BatchMultiClassNonMaxSuppression/MultiClassNonMaxSuppression/mul_4",
                "op": "Const",
                "attr": {
                    "value": {"tensor": {"dtype": "DT_FLOAT", "tensorShape": {"dim": [{"size": "100"}]}}},
                    "dtype": {"type": "DT_FLOAT"}
                }
            },
            {
                "name": "StatefulPartitionedCall/Postprocessor/BatchMultiClassNonMaxSuppression/MultiClassNonMaxSuppression/range_5",
                "op": "Const",
                "attr": {
                    "value": {"tensor": {"dtype": "DT_INT32", "tensorShape": {"dim": [{"size": "100"}]}}},
                    "dtype": {"type": "DT_INT32"}
                }
            },
            {
                "name": "StatefulPartitionedCall/Postprocessor/BatchMultiClassNonMaxSuppression/MultiClassNonMaxSuppression/zeros_11/Reshape/shape",
                "op": "Const",
                "attr": {
                    "value": {"tensor": {"dtype": "DT_INT32", "tensorShape": {"dim": [{"size": "1"}]}}},
                    "dtype": {"type": "DT_INT32"}
                }
            },
            {
                "name": "StatefulPartitionedCall/Postprocessor/BatchMultiClassNonMaxSuppression/MultiClassNonMaxSuppression/zeros_11/Const",
                "op": "Const",
                "attr": {"value": {"tensor": {"dtype": "DT_FLOAT", "tensorShape": {}}}, "dtype": {"type": "DT_FLOAT"}}
            },
            {
                "name": "StatefulPartitionedCall/Postprocessor/BatchMultiClassNonMaxSuppression/MultiClassNonMaxSuppression/concat_11/axis",
                "op": "Const",
                "attr": {"value": {"tensor": {"dtype": "DT_INT32", "tensorShape": {}}}, "dtype": {"type": "DT_INT32"}}
            },
            {
                "name": "StatefulPartitionedCall/Postprocessor/BatchMultiClassNonMaxSuppression/MultiClassNonMaxSuppression/mul_5",
                "op": "Const",
                "attr": {
                    "dtype": {"type": "DT_FLOAT"},
                    "value": {"tensor": {"dtype": "DT_FLOAT", "tensorShape": {"dim": [{"size": "100"}]}}}
                }
            },
            {
                "name": "StatefulPartitionedCall/Postprocessor/BatchMultiClassNonMaxSuppression/MultiClassNonMaxSuppression/range_6",
                "op": "Const",
                "attr": {
                    "value": {"tensor": {"dtype": "DT_INT32", "tensorShape": {"dim": [{"size": "100"}]}}},
                    "dtype": {"type": "DT_INT32"}
                }
            },
            {
                "name": "StatefulPartitionedCall/Postprocessor/BatchMultiClassNonMaxSuppression/MultiClassNonMaxSuppression/zeros_13/Reshape/shape",
                "op": "Const",
                "attr": {
                    "value": {"tensor": {"dtype": "DT_INT32", "tensorShape": {"dim": [{"size": "1"}]}}},
                    "dtype": {"type": "DT_INT32"}
                }
            },
            {
                "name": "StatefulPartitionedCall/Postprocessor/BatchMultiClassNonMaxSuppression/MultiClassNonMaxSuppression/zeros_13/Const",
                "op": "Const",
                "attr": {"value": {"tensor": {"dtype": "DT_FLOAT", "tensorShape": {}}}, "dtype": {"type": "DT_FLOAT"}}
            },
            {
                "name": "StatefulPartitionedCall/Postprocessor/BatchMultiClassNonMaxSuppression/MultiClassNonMaxSuppression/concat_13/axis",
                "op": "Const",
                "attr": {"value": {"tensor": {"dtype": "DT_INT32", "tensorShape": {}}}, "dtype": {"type": "DT_INT32"}}
            },
            {
                "name": "StatefulPartitionedCall/Postprocessor/BatchMultiClassNonMaxSuppression/MultiClassNonMaxSuppression/mul_6",
                "op": "Const",
                "attr": {
                    "value": {"tensor": {"dtype": "DT_FLOAT", "tensorShape": {"dim": [{"size": "100"}]}}},
                    "dtype": {"type": "DT_FLOAT"}
                }
            },
            {
                "name": "StatefulPartitionedCall/Postprocessor/BatchMultiClassNonMaxSuppression/MultiClassNonMaxSuppression/range_7",
                "op": "Const",
                "attr": {
                    "dtype": {"type": "DT_INT32"},
                    "value": {"tensor": {"dtype": "DT_INT32", "tensorShape": {"dim": [{"size": "100"}]}}}
                }
            },
            {
                "name": "StatefulPartitionedCall/Postprocessor/BatchMultiClassNonMaxSuppression/MultiClassNonMaxSuppression/zeros_15/Reshape/shape",
                "op": "Const",
                "attr": {
                    "value": {"tensor": {"dtype": "DT_INT32", "tensorShape": {"dim": [{"size": "1"}]}}},
                    "dtype": {"type": "DT_INT32"}
                }
            },
            {
                "name": "StatefulPartitionedCall/Postprocessor/BatchMultiClassNonMaxSuppression/MultiClassNonMaxSuppression/zeros_15/Const",
                "op": "Const",
                "attr": {"value": {"tensor": {"dtype": "DT_FLOAT", "tensorShape": {}}}, "dtype": {"type": "DT_FLOAT"}}
            },
            {
                "name": "StatefulPartitionedCall/Postprocessor/BatchMultiClassNonMaxSuppression/MultiClassNonMaxSuppression/concat_15/axis",
                "op": "Const",
                "attr": {"dtype": {"type": "DT_INT32"}, "value": {"tensor": {"dtype": "DT_INT32", "tensorShape": {}}}}
            },
            {
                "name": "StatefulPartitionedCall/Postprocessor/BatchMultiClassNonMaxSuppression/MultiClassNonMaxSuppression/mul_7",
                "op": "Const",
                "attr": {
                    "value": {"tensor": {"dtype": "DT_FLOAT", "tensorShape": {"dim": [{"size": "100"}]}}},
                    "dtype": {"type": "DT_FLOAT"}
                }
            },
            {
                "name": "StatefulPartitionedCall/Postprocessor/BatchMultiClassNonMaxSuppression/MultiClassNonMaxSuppression/range_8",
                "op": "Const",
                "attr": {
                    "value": {"tensor": {"dtype": "DT_INT32", "tensorShape": {"dim": [{"size": "100"}]}}},
                    "dtype": {"type": "DT_INT32"}
                }
            },
            {
                "name": "StatefulPartitionedCall/Postprocessor/BatchMultiClassNonMaxSuppression/MultiClassNonMaxSuppression/zeros_17/Reshape/shape",
                "op": "Const",
                "attr": {
                    "value": {"tensor": {"dtype": "DT_INT32", "tensorShape": {"dim": [{"size": "1"}]}}},
                    "dtype": {"type": "DT_INT32"}
                }
            },
            {
                "name": "StatefulPartitionedCall/Postprocessor/BatchMultiClassNonMaxSuppression/MultiClassNonMaxSuppression/zeros_17/Const",
                "op": "Const",
                "attr": {"dtype": {"type": "DT_FLOAT"}, "value": {"tensor": {"dtype": "DT_FLOAT", "tensorShape": {}}}}
            },
            {
                "name": "StatefulPartitionedCall/Postprocessor/BatchMultiClassNonMaxSuppression/MultiClassNonMaxSuppression/concat_17/axis",
                "op": "Const",
                "attr": {"value": {"tensor": {"dtype": "DT_INT32", "tensorShape": {}}}, "dtype": {"type": "DT_INT32"}}
            },
            {
                "name": "StatefulPartitionedCall/Postprocessor/BatchMultiClassNonMaxSuppression/MultiClassNonMaxSuppression/mul_8",
                "op": "Const",
                "attr": {
                    "value": {"tensor": {"dtype": "DT_FLOAT", "tensorShape": {"dim": [{"size": "100"}]}}},
                    "dtype": {"type": "DT_FLOAT"}
                }
            },
            {
                "name": "StatefulPartitionedCall/Postprocessor/BatchMultiClassNonMaxSuppression/MultiClassNonMaxSuppression/range_9",
                "op": "Const",
                "attr": {
                    "dtype": {"type": "DT_INT32"},
                    "value": {"tensor": {"dtype": "DT_INT32", "tensorShape": {"dim": [{"size": "100"}]}}}
                }
            },
            {
                "name": "StatefulPartitionedCall/Postprocessor/BatchMultiClassNonMaxSuppression/MultiClassNonMaxSuppression/zeros_19/Reshape/shape",
                "op": "Const",
                "attr": {
                    "dtype": {"type": "DT_INT32"},
                    "value": {"tensor": {"dtype": "DT_INT32", "tensorShape": {"dim": [{"size": "1"}]}}}
                }
            },
            {
                "name": "StatefulPartitionedCall/Postprocessor/BatchMultiClassNonMaxSuppression/MultiClassNonMaxSuppression/zeros_19/Const",
                "op": "Const",
                "attr": {"value": {"tensor": {"dtype": "DT_FLOAT", "tensorShape": {}}}, "dtype": {"type": "DT_FLOAT"}}
            },
            {
                "name": "StatefulPartitionedCall/Postprocessor/BatchMultiClassNonMaxSuppression/MultiClassNonMaxSuppression/concat_19/axis",
                "op": "Const",
                "attr": {"value": {"tensor": {"dtype": "DT_INT32", "tensorShape": {}}}, "dtype": {"type": "DT_INT32"}}
            },
            {
                "name": "StatefulPartitionedCall/Postprocessor/BatchMultiClassNonMaxSuppression/MultiClassNonMaxSuppression/mul_9",
                "op": "Const",
                "attr": {
                    "value": {"tensor": {"dtype": "DT_FLOAT", "tensorShape": {"dim": [{"size": "100"}]}}},
                    "dtype": {"type": "DT_FLOAT"}
                }
            },
            {
                "name": "StatefulPartitionedCall/Postprocessor/BatchMultiClassNonMaxSuppression/MultiClassNonMaxSuppression/range_10",
                "op": "Const",
                "attr": {
                    "value": {"tensor": {"dtype": "DT_INT32", "tensorShape": {"dim": [{"size": "100"}]}}},
                    "dtype": {"type": "DT_INT32"}
                }
            },
            {
                "name": "StatefulPartitionedCall/Postprocessor/BatchMultiClassNonMaxSuppression/MultiClassNonMaxSuppression/zeros_21/Reshape/shape",
                "op": "Const",
                "attr": {
                    "dtype": {"type": "DT_INT32"},
                    "value": {"tensor": {"dtype": "DT_INT32", "tensorShape": {"dim": [{"size": "1"}]}}}
                }
            },
            {
                "name": "StatefulPartitionedCall/Postprocessor/BatchMultiClassNonMaxSuppression/MultiClassNonMaxSuppression/zeros_21/Const",
                "op": "Const",
                "attr": {"value": {"tensor": {"dtype": "DT_FLOAT", "tensorShape": {}}}, "dtype": {"type": "DT_FLOAT"}}
            },
            {
                "name": "StatefulPartitionedCall/Postprocessor/BatchMultiClassNonMaxSuppression/MultiClassNonMaxSuppression/concat_21/axis",
                "op": "Const",
                "attr": {"dtype": {"type": "DT_INT32"}, "value": {"tensor": {"dtype": "DT_INT32", "tensorShape": {}}}}
            },
            {
                "name": "StatefulPartitionedCall/Postprocessor/BatchMultiClassNonMaxSuppression/MultiClassNonMaxSuppression/mul_10",
                "op": "Const",
                "attr": {
                    "value": {"tensor": {"dtype": "DT_FLOAT", "tensorShape": {"dim": [{"size": "100"}]}}},
                    "dtype": {"type": "DT_FLOAT"}
                }
            },
            {
                "name": "StatefulPartitionedCall/Postprocessor/BatchMultiClassNonMaxSuppression/MultiClassNonMaxSuppression/range_11",
                "op": "Const",
                "attr": {
                    "value": {"tensor": {"dtype": "DT_INT32", "tensorShape": {"dim": [{"size": "100"}]}}},
                    "dtype": {"type": "DT_INT32"}
                }
            },
            {
                "name": "StatefulPartitionedCall/Postprocessor/BatchMultiClassNonMaxSuppression/MultiClassNonMaxSuppression/zeros_23/Reshape/shape",
                "op": "Const",
                "attr": {
                    "dtype": {"type": "DT_INT32"},
                    "value": {"tensor": {"dtype": "DT_INT32", "tensorShape": {"dim": [{"size": "1"}]}}}
                }
            },
            {
                "name": "StatefulPartitionedCall/Postprocessor/BatchMultiClassNonMaxSuppression/MultiClassNonMaxSuppression/zeros_23/Const",
                "op": "Const",
                "attr": {"dtype": {"type": "DT_FLOAT"}, "value": {"tensor": {"dtype": "DT_FLOAT", "tensorShape": {}}}}
            },
            {
                "name": "StatefulPartitionedCall/Postprocessor/BatchMultiClassNonMaxSuppression/MultiClassNonMaxSuppression/concat_23/axis",
                "op": "Const",
                "attr": {"value": {"tensor": {"dtype": "DT_INT32", "tensorShape": {}}}, "dtype": {"type": "DT_INT32"}}
            },
            {
                "name": "StatefulPartitionedCall/Postprocessor/BatchMultiClassNonMaxSuppression/MultiClassNonMaxSuppression/mul_11",
                "op": "Const",
                "attr": {
                    "dtype": {"type": "DT_FLOAT"},
                    "value": {"tensor": {"dtype": "DT_FLOAT", "tensorShape": {"dim": [{"size": "100"}]}}}
                }
            },
            {
                "name": "StatefulPartitionedCall/Postprocessor/BatchMultiClassNonMaxSuppression/MultiClassNonMaxSuppression/range_12",
                "op": "Const",
                "attr": {
                    "value": {"tensor": {"dtype": "DT_INT32", "tensorShape": {"dim": [{"size": "100"}]}}},
                    "dtype": {"type": "DT_INT32"}
                }
            },
            {
                "name": "StatefulPartitionedCall/Postprocessor/BatchMultiClassNonMaxSuppression/MultiClassNonMaxSuppression/zeros_25/Reshape/shape",
                "op": "Const",
                "attr": {
                    "value": {"tensor": {"dtype": "DT_INT32", "tensorShape": {"dim": [{"size": "1"}]}}},
                    "dtype": {"type": "DT_INT32"}
                }
            },
            {
                "name": "StatefulPartitionedCall/Postprocessor/BatchMultiClassNonMaxSuppression/MultiClassNonMaxSuppression/zeros_25/Const",
                "op": "Const",
                "attr": {"value": {"tensor": {"dtype": "DT_FLOAT", "tensorShape": {}}}, "dtype": {"type": "DT_FLOAT"}}
            },
            {
                "name": "StatefulPartitionedCall/Postprocessor/BatchMultiClassNonMaxSuppression/MultiClassNonMaxSuppression/concat_25/axis",
                "op": "Const",
                "attr": {"value": {"tensor": {"dtype": "DT_INT32", "tensorShape": {}}}, "dtype": {"type": "DT_INT32"}}
            },
            {
                "name": "StatefulPartitionedCall/Postprocessor/BatchMultiClassNonMaxSuppression/MultiClassNonMaxSuppression/mul_12",
                "op": "Const",
                "attr": {
                    "value": {"tensor": {"dtype": "DT_FLOAT", "tensorShape": {"dim": [{"size": "100"}]}}},
                    "dtype": {"type": "DT_FLOAT"}
                }
            },
            {
                "name": "StatefulPartitionedCall/Postprocessor/BatchMultiClassNonMaxSuppression/MultiClassNonMaxSuppression/range_13",
                "op": "Const",
                "attr": {
                    "value": {"tensor": {"dtype": "DT_INT32", "tensorShape": {"dim": [{"size": "100"}]}}},
                    "dtype": {"type": "DT_INT32"}
                }
            },
            {
                "name": "StatefulPartitionedCall/Postprocessor/BatchMultiClassNonMaxSuppression/MultiClassNonMaxSuppression/zeros_27/Reshape/shape",
                "op": "Const",
                "attr": {
                    "value": {"tensor": {"dtype": "DT_INT32", "tensorShape": {"dim": [{"size": "1"}]}}},
                    "dtype": {"type": "DT_INT32"}
                }
            },
            {
                "name": "StatefulPartitionedCall/Postprocessor/BatchMultiClassNonMaxSuppression/MultiClassNonMaxSuppression/zeros_27/Const",
                "op": "Const",
                "attr": {"dtype": {"type": "DT_FLOAT"}, "value": {"tensor": {"dtype": "DT_FLOAT", "tensorShape": {}}}}
            },
            {
                "name": "StatefulPartitionedCall/Postprocessor/BatchMultiClassNonMaxSuppression/MultiClassNonMaxSuppression/concat_27/axis",
                "op": "Const",
                "attr": {"value": {"tensor": {"dtype": "DT_INT32", "tensorShape": {}}}, "dtype": {"type": "DT_INT32"}}
            },
            {
                "name": "StatefulPartitionedCall/Postprocessor/BatchMultiClassNonMaxSuppression/MultiClassNonMaxSuppression/mul_13",
                "op": "Const",
                "attr": {
                    "value": {"tensor": {"dtype": "DT_FLOAT", "tensorShape": {"dim": [{"size": "100"}]}}},
                    "dtype": {"type": "DT_FLOAT"}
                }
            },
            {
                "name": "StatefulPartitionedCall/Postprocessor/BatchMultiClassNonMaxSuppression/MultiClassNonMaxSuppression/range_14",
                "op": "Const",
                "attr": {
                    "value": {"tensor": {"dtype": "DT_INT32", "tensorShape": {"dim": [{"size": "100"}]}}},
                    "dtype": {"type": "DT_INT32"}
                }
            },
            {
                "name": "StatefulPartitionedCall/Postprocessor/BatchMultiClassNonMaxSuppression/MultiClassNonMaxSuppression/zeros_29/Reshape/shape",
                "op": "Const",
                "attr": {
                    "value": {"tensor": {"dtype": "DT_INT32", "tensorShape": {"dim": [{"size": "1"}]}}},
                    "dtype": {"type": "DT_INT32"}
                }
            },
            {
                "name": "StatefulPartitionedCall/Postprocessor/BatchMultiClassNonMaxSuppression/MultiClassNonMaxSuppression/zeros_29/Const",
                "op": "Const",
                "attr": {"dtype": {"type": "DT_FLOAT"}, "value": {"tensor": {"dtype": "DT_FLOAT", "tensorShape": {}}}}
            },
            {
                "name": "StatefulPartitionedCall/Postprocessor/BatchMultiClassNonMaxSuppression/MultiClassNonMaxSuppression/concat_29/axis",
                "op": "Const",
                "attr": {"dtype": {"type": "DT_INT32"}, "value": {"tensor": {"dtype": "DT_INT32", "tensorShape": {}}}}
            },
            {
                "name": "StatefulPartitionedCall/Postprocessor/BatchMultiClassNonMaxSuppression/MultiClassNonMaxSuppression/mul_14",
                "op": "Const",
                "attr": {
                    "value": {"tensor": {"dtype": "DT_FLOAT", "tensorShape": {"dim": [{"size": "100"}]}}},
                    "dtype": {"type": "DT_FLOAT"}
                }
            },
            {
                "name": "StatefulPartitionedCall/Postprocessor/BatchMultiClassNonMaxSuppression/MultiClassNonMaxSuppression/range_15",
                "op": "Const",
                "attr": {
                    "dtype": {"type": "DT_INT32"},
                    "value": {"tensor": {"dtype": "DT_INT32", "tensorShape": {"dim": [{"size": "100"}]}}}
                }
            },
            {
                "name": "StatefulPartitionedCall/Postprocessor/BatchMultiClassNonMaxSuppression/MultiClassNonMaxSuppression/zeros_31/Reshape/shape",
                "op": "Const",
                "attr": {
                    "dtype": {"type": "DT_INT32"},
                    "value": {"tensor": {"dtype": "DT_INT32", "tensorShape": {"dim": [{"size": "1"}]}}}
                }
            },
            {
                "name": "StatefulPartitionedCall/Postprocessor/BatchMultiClassNonMaxSuppression/MultiClassNonMaxSuppression/zeros_31/Const",
                "op": "Const",
                "attr": {"dtype": {"type": "DT_FLOAT"}, "value": {"tensor": {"dtype": "DT_FLOAT", "tensorShape": {}}}}
            },
            {
                "name": "StatefulPartitionedCall/Postprocessor/BatchMultiClassNonMaxSuppression/MultiClassNonMaxSuppression/concat_31/axis",
                "op": "Const",
                "attr": {"dtype": {"type": "DT_INT32"}, "value": {"tensor": {"dtype": "DT_INT32", "tensorShape": {}}}}
            },
            {
                "name": "StatefulPartitionedCall/Postprocessor/BatchMultiClassNonMaxSuppression/MultiClassNonMaxSuppression/mul_15",
                "op": "Const",
                "attr": {
                    "value": {"tensor": {"dtype": "DT_FLOAT", "tensorShape": {"dim": [{"size": "100"}]}}},
                    "dtype": {"type": "DT_FLOAT"}
                }
            },
            {
                "name": "StatefulPartitionedCall/Postprocessor/BatchMultiClassNonMaxSuppression/MultiClassNonMaxSuppression/range_16",
                "op": "Const",
                "attr": {
                    "dtype": {"type": "DT_INT32"},
                    "value": {"tensor": {"dtype": "DT_INT32", "tensorShape": {"dim": [{"size": "100"}]}}}
                }
            },
            {
                "name": "StatefulPartitionedCall/Postprocessor/BatchMultiClassNonMaxSuppression/MultiClassNonMaxSuppression/zeros_33/Reshape/shape",
                "op": "Const",
                "attr": {
                    "value": {"tensor": {"dtype": "DT_INT32", "tensorShape": {"dim": [{"size": "1"}]}}},
                    "dtype": {"type": "DT_INT32"}
                }
            },
            {
                "name": "StatefulPartitionedCall/Postprocessor/BatchMultiClassNonMaxSuppression/MultiClassNonMaxSuppression/zeros_33/Const",
                "op": "Const",
                "attr": {"value": {"tensor": {"dtype": "DT_FLOAT", "tensorShape": {}}}, "dtype": {"type": "DT_FLOAT"}}
            },
            {
                "name": "StatefulPartitionedCall/Postprocessor/BatchMultiClassNonMaxSuppression/MultiClassNonMaxSuppression/concat_33/axis",
                "op": "Const",
                "attr": {"value": {"tensor": {"dtype": "DT_INT32", "tensorShape": {}}}, "dtype": {"type": "DT_INT32"}}
            },
            {
                "name": "StatefulPartitionedCall/Postprocessor/BatchMultiClassNonMaxSuppression/MultiClassNonMaxSuppression/mul_16",
                "op": "Const",
                "attr": {
                    "dtype": {"type": "DT_FLOAT"},
                    "value": {"tensor": {"dtype": "DT_FLOAT", "tensorShape": {"dim": [{"size": "100"}]}}}
                }
            },
            {
                "name": "StatefulPartitionedCall/Postprocessor/BatchMultiClassNonMaxSuppression/MultiClassNonMaxSuppression/range_17",
                "op": "Const",
                "attr": {
                    "value": {"tensor": {"dtype": "DT_INT32", "tensorShape": {"dim": [{"size": "100"}]}}},
                    "dtype": {"type": "DT_INT32"}
                }
            },
            {
                "name": "StatefulPartitionedCall/Postprocessor/BatchMultiClassNonMaxSuppression/MultiClassNonMaxSuppression/zeros_35/Reshape/shape",
                "op": "Const",
                "attr": {
                    "value": {"tensor": {"dtype": "DT_INT32", "tensorShape": {"dim": [{"size": "1"}]}}},
                    "dtype": {"type": "DT_INT32"}
                }
            },
            {
                "name": "StatefulPartitionedCall/Postprocessor/BatchMultiClassNonMaxSuppression/MultiClassNonMaxSuppression/zeros_35/Const",
                "op": "Const",
                "attr": {"dtype": {"type": "DT_FLOAT"}, "value": {"tensor": {"dtype": "DT_FLOAT", "tensorShape": {}}}}
            },
            {
                "name": "StatefulPartitionedCall/Postprocessor/BatchMultiClassNonMaxSuppression/MultiClassNonMaxSuppression/concat_35/axis",
                "op": "Const",
                "attr": {"value": {"tensor": {"dtype": "DT_INT32", "tensorShape": {}}}, "dtype": {"type": "DT_INT32"}}
            },
            {
                "name": "StatefulPartitionedCall/Postprocessor/BatchMultiClassNonMaxSuppression/MultiClassNonMaxSuppression/mul_17",
                "op": "Const",
                "attr": {
                    "dtype": {"type": "DT_FLOAT"},
                    "value": {"tensor": {"dtype": "DT_FLOAT", "tensorShape": {"dim": [{"size": "100"}]}}}
                }
            },
            {
                "name": "StatefulPartitionedCall/Postprocessor/BatchMultiClassNonMaxSuppression/MultiClassNonMaxSuppression/range_18",
                "op": "Const",
                "attr": {
                    "value": {"tensor": {"dtype": "DT_INT32", "tensorShape": {"dim": [{"size": "100"}]}}},
                    "dtype": {"type": "DT_INT32"}
                }
            },
            {
                "name": "StatefulPartitionedCall/Postprocessor/BatchMultiClassNonMaxSuppression/MultiClassNonMaxSuppression/zeros_37/Reshape/shape",
                "op": "Const",
                "attr": {
                    "dtype": {"type": "DT_INT32"},
                    "value": {"tensor": {"dtype": "DT_INT32", "tensorShape": {"dim": [{"size": "1"}]}}}
                }
            },
            {
                "name": "StatefulPartitionedCall/Postprocessor/BatchMultiClassNonMaxSuppression/MultiClassNonMaxSuppression/zeros_37/Const",
                "op": "Const",
                "attr": {"value": {"tensor": {"dtype": "DT_FLOAT", "tensorShape": {}}}, "dtype": {"type": "DT_FLOAT"}}
            },
            {
                "name": "StatefulPartitionedCall/Postprocessor/BatchMultiClassNonMaxSuppression/MultiClassNonMaxSuppression/concat_37/axis",
                "op": "Const",
                "attr": {"dtype": {"type": "DT_INT32"}, "value": {"tensor": {"dtype": "DT_INT32", "tensorShape": {}}}}
            },
            {
                "name": "StatefulPartitionedCall/Postprocessor/BatchMultiClassNonMaxSuppression/MultiClassNonMaxSuppression/mul_18",
                "op": "Const",
                "attr": {
                    "dtype": {"type": "DT_FLOAT"},
                    "value": {"tensor": {"dtype": "DT_FLOAT", "tensorShape": {"dim": [{"size": "100"}]}}}
                }
            },
            {
                "name": "StatefulPartitionedCall/Postprocessor/BatchMultiClassNonMaxSuppression/MultiClassNonMaxSuppression/range_19",
                "op": "Const",
                "attr": {
                    "value": {"tensor": {"dtype": "DT_INT32", "tensorShape": {"dim": [{"size": "100"}]}}},
                    "dtype": {"type": "DT_INT32"}
                }
            },
            {
                "name": "StatefulPartitionedCall/Postprocessor/BatchMultiClassNonMaxSuppression/MultiClassNonMaxSuppression/zeros_39/Reshape/shape",
                "op": "Const",
                "attr": {
                    "dtype": {"type": "DT_INT32"},
                    "value": {"tensor": {"dtype": "DT_INT32", "tensorShape": {"dim": [{"size": "1"}]}}}
                }
            },
            {
                "name": "StatefulPartitionedCall/Postprocessor/BatchMultiClassNonMaxSuppression/MultiClassNonMaxSuppression/zeros_39/Const",
                "op": "Const",
                "attr": {"value": {"tensor": {"dtype": "DT_FLOAT", "tensorShape": {}}}, "dtype": {"type": "DT_FLOAT"}}
            },
            {
                "name": "StatefulPartitionedCall/Postprocessor/BatchMultiClassNonMaxSuppression/MultiClassNonMaxSuppression/concat_39/axis",
                "op": "Const",
                "attr": {"value": {"tensor": {"dtype": "DT_INT32", "tensorShape": {}}}, "dtype": {"type": "DT_INT32"}}
            },
            {
                "name": "StatefulPartitionedCall/Postprocessor/BatchMultiClassNonMaxSuppression/MultiClassNonMaxSuppression/mul_19",
                "op": "Const",
                "attr": {
                    "dtype": {"type": "DT_FLOAT"},
                    "value": {"tensor": {"dtype": "DT_FLOAT", "tensorShape": {"dim": [{"size": "100"}]}}}
                }
            },
            {
                "name": "StatefulPartitionedCall/Postprocessor/BatchMultiClassNonMaxSuppression/MultiClassNonMaxSuppression/range_20",
                "op": "Const",
                "attr": {
                    "value": {"tensor": {"dtype": "DT_INT32", "tensorShape": {"dim": [{"size": "100"}]}}},
                    "dtype": {"type": "DT_INT32"}
                }
            },
            {
                "name": "StatefulPartitionedCall/Postprocessor/BatchMultiClassNonMaxSuppression/MultiClassNonMaxSuppression/zeros_41/Reshape/shape",
                "op": "Const",
                "attr": {
                    "dtype": {"type": "DT_INT32"},
                    "value": {"tensor": {"dtype": "DT_INT32", "tensorShape": {"dim": [{"size": "1"}]}}}
                }
            },
            {
                "name": "StatefulPartitionedCall/Postprocessor/BatchMultiClassNonMaxSuppression/MultiClassNonMaxSuppression/zeros_41/Const",
                "op": "Const",
                "attr": {"value": {"tensor": {"dtype": "DT_FLOAT", "tensorShape": {}}}, "dtype": {"type": "DT_FLOAT"}}
            },
            {
                "name": "StatefulPartitionedCall/Postprocessor/BatchMultiClassNonMaxSuppression/MultiClassNonMaxSuppression/concat_41/axis",
                "op": "Const",
                "attr": {"value": {"tensor": {"dtype": "DT_INT32", "tensorShape": {}}}, "dtype": {"type": "DT_INT32"}}
            },
            {
                "name": "StatefulPartitionedCall/Postprocessor/BatchMultiClassNonMaxSuppression/MultiClassNonMaxSuppression/mul_20",
                "op": "Const",
                "attr": {
                    "value": {"tensor": {"dtype": "DT_FLOAT", "tensorShape": {"dim": [{"size": "100"}]}}},
                    "dtype": {"type": "DT_FLOAT"}
                }
            },
            {
                "name": "StatefulPartitionedCall/Postprocessor/BatchMultiClassNonMaxSuppression/MultiClassNonMaxSuppression/range_21",
                "op": "Const",
                "attr": {
                    "value": {"tensor": {"dtype": "DT_INT32", "tensorShape": {"dim": [{"size": "100"}]}}},
                    "dtype": {"type": "DT_INT32"}
                }
            },
            {
                "name": "StatefulPartitionedCall/Postprocessor/BatchMultiClassNonMaxSuppression/MultiClassNonMaxSuppression/zeros_43/Reshape/shape",
                "op": "Const",
                "attr": {
                    "dtype": {"type": "DT_INT32"},
                    "value": {"tensor": {"dtype": "DT_INT32", "tensorShape": {"dim": [{"size": "1"}]}}}
                }
            },
            {
                "name": "StatefulPartitionedCall/Postprocessor/BatchMultiClassNonMaxSuppression/MultiClassNonMaxSuppression/zeros_43/Const",
                "op": "Const",
                "attr": {"value": {"tensor": {"dtype": "DT_FLOAT", "tensorShape": {}}}, "dtype": {"type": "DT_FLOAT"}}
            },
            {
                "name": "StatefulPartitionedCall/Postprocessor/BatchMultiClassNonMaxSuppression/MultiClassNonMaxSuppression/concat_43/axis",
                "op": "Const",
                "attr": {"dtype": {"type": "DT_INT32"}, "value": {"tensor": {"dtype": "DT_INT32", "tensorShape": {}}}}
            },
            {
                "name": "StatefulPartitionedCall/Postprocessor/BatchMultiClassNonMaxSuppression/MultiClassNonMaxSuppression/mul_21",
                "op": "Const",
                "attr": {
                    "dtype": {"type": "DT_FLOAT"},
                    "value": {"tensor": {"dtype": "DT_FLOAT", "tensorShape": {"dim": [{"size": "100"}]}}}
                }
            },
            {
                "name": "StatefulPartitionedCall/Postprocessor/BatchMultiClassNonMaxSuppression/MultiClassNonMaxSuppression/range_22",
                "op": "Const",
                "attr": {
                    "value": {"tensor": {"dtype": "DT_INT32", "tensorShape": {"dim": [{"size": "100"}]}}},
                    "dtype": {"type": "DT_INT32"}
                }
            },
            {
                "name": "StatefulPartitionedCall/Postprocessor/BatchMultiClassNonMaxSuppression/MultiClassNonMaxSuppression/zeros_45/Reshape/shape",
                "op": "Const",
                "attr": {
                    "value": {"tensor": {"dtype": "DT_INT32", "tensorShape": {"dim": [{"size": "1"}]}}},
                    "dtype": {"type": "DT_INT32"}
                }
            },
            {
                "name": "StatefulPartitionedCall/Postprocessor/BatchMultiClassNonMaxSuppression/MultiClassNonMaxSuppression/zeros_45/Const",
                "op": "Const",
                "attr": {"value": {"tensor": {"dtype": "DT_FLOAT", "tensorShape": {}}}, "dtype": {"type": "DT_FLOAT"}}
            },
            {
                "name": "StatefulPartitionedCall/Postprocessor/BatchMultiClassNonMaxSuppression/MultiClassNonMaxSuppression/concat_45/axis",
                "op": "Const",
                "attr": {"dtype": {"type": "DT_INT32"}, "value": {"tensor": {"dtype": "DT_INT32", "tensorShape": {}}}}
            },
            {
                "name": "StatefulPartitionedCall/Postprocessor/BatchMultiClassNonMaxSuppression/MultiClassNonMaxSuppression/mul_22",
                "op": "Const",
                "attr": {
                    "dtype": {"type": "DT_FLOAT"},
                    "value": {"tensor": {"dtype": "DT_FLOAT", "tensorShape": {"dim": [{"size": "100"}]}}}
                }
            },
            {
                "name": "StatefulPartitionedCall/Postprocessor/BatchMultiClassNonMaxSuppression/MultiClassNonMaxSuppression/range_23",
                "op": "Const",
                "attr": {
                    "value": {"tensor": {"dtype": "DT_INT32", "tensorShape": {"dim": [{"size": "100"}]}}},
                    "dtype": {"type": "DT_INT32"}
                }
            },
            {
                "name": "StatefulPartitionedCall/Postprocessor/BatchMultiClassNonMaxSuppression/MultiClassNonMaxSuppression/zeros_47/Reshape/shape",
                "op": "Const",
                "attr": {
                    "dtype": {"type": "DT_INT32"},
                    "value": {"tensor": {"dtype": "DT_INT32", "tensorShape": {"dim": [{"size": "1"}]}}}
                }
            },
            {
                "name": "StatefulPartitionedCall/Postprocessor/BatchMultiClassNonMaxSuppression/MultiClassNonMaxSuppression/zeros_47/Const",
                "op": "Const",
                "attr": {"value": {"tensor": {"dtype": "DT_FLOAT", "tensorShape": {}}}, "dtype": {"type": "DT_FLOAT"}}
            },
            {
                "name": "StatefulPartitionedCall/Postprocessor/BatchMultiClassNonMaxSuppression/MultiClassNonMaxSuppression/concat_47/axis",
                "op": "Const",
                "attr": {"dtype": {"type": "DT_INT32"}, "value": {"tensor": {"dtype": "DT_INT32", "tensorShape": {}}}}
            },
            {
                "name": "StatefulPartitionedCall/Postprocessor/BatchMultiClassNonMaxSuppression/MultiClassNonMaxSuppression/mul_23",
                "op": "Const",
                "attr": {
                    "dtype": {"type": "DT_FLOAT"},
                    "value": {"tensor": {"dtype": "DT_FLOAT", "tensorShape": {"dim": [{"size": "100"}]}}}
                }
            },
            {
                "name": "StatefulPartitionedCall/Postprocessor/BatchMultiClassNonMaxSuppression/MultiClassNonMaxSuppression/range_24",
                "op": "Const",
                "attr": {
                    "dtype": {"type": "DT_INT32"},
                    "value": {"tensor": {"dtype": "DT_INT32", "tensorShape": {"dim": [{"size": "100"}]}}}
                }
            },
            {
                "name": "StatefulPartitionedCall/Postprocessor/BatchMultiClassNonMaxSuppression/MultiClassNonMaxSuppression/zeros_49/Reshape/shape",
                "op": "Const",
                "attr": {
                    "dtype": {"type": "DT_INT32"},
                    "value": {"tensor": {"dtype": "DT_INT32", "tensorShape": {"dim": [{"size": "1"}]}}}
                }
            },
            {
                "name": "StatefulPartitionedCall/Postprocessor/BatchMultiClassNonMaxSuppression/MultiClassNonMaxSuppression/zeros_49/Const",
                "op": "Const",
                "attr": {"value": {"tensor": {"dtype": "DT_FLOAT", "tensorShape": {}}}, "dtype": {"type": "DT_FLOAT"}}
            },
            {
                "name": "StatefulPartitionedCall/Postprocessor/BatchMultiClassNonMaxSuppression/MultiClassNonMaxSuppression/concat_49/axis",
                "op": "Const",
                "attr": {"value": {"tensor": {"dtype": "DT_INT32", "tensorShape": {}}}, "dtype": {"type": "DT_INT32"}}
            },
            {
                "name": "StatefulPartitionedCall/Postprocessor/BatchMultiClassNonMaxSuppression/MultiClassNonMaxSuppression/mul_24",
                "op": "Const",
                "attr": {
                    "value": {"tensor": {"dtype": "DT_FLOAT", "tensorShape": {"dim": [{"size": "100"}]}}},
                    "dtype": {"type": "DT_FLOAT"}
                }
            },
            {
                "name": "StatefulPartitionedCall/Postprocessor/BatchMultiClassNonMaxSuppression/MultiClassNonMaxSuppression/Concatenate/concat_1/axis",
                "op": "Const",
                "attr": {"value": {"tensor": {"dtype": "DT_INT32", "tensorShape": {}}}, "dtype": {"type": "DT_INT32"}}
            },
            {
                "name": "StatefulPartitionedCall/Postprocessor/BatchMultiClassNonMaxSuppression/MultiClassNonMaxSuppression/Slice/begin",
                "op": "Const",
                "attr": {
                    "value": {"tensor": {"dtype": "DT_INT32", "tensorShape": {"dim": [{"size": "2"}]}}},
                    "dtype": {"type": "DT_INT32"}
                }
            },
            {
                "name": "StatefulPartitionedCall/Postprocessor/BatchMultiClassNonMaxSuppression/MultiClassNonMaxSuppression/stack",
                "op": "Const",
                "attr": {
                    "dtype": {"type": "DT_INT32"},
                    "value": {"tensor": {"dtype": "DT_INT32", "tensorShape": {"dim": [{"size": "2"}]}}}
                }
            },
            {
                "name": "StatefulPartitionedCall/Postprocessor/BatchMultiClassNonMaxSuppression/MultiClassNonMaxSuppression/Reshape/shape",
                "op": "Const",
                "attr": {
                    "value": {"tensor": {"dtype": "DT_INT32", "tensorShape": {"dim": [{"size": "1"}]}}},
                    "dtype": {"type": "DT_INT32"}
                }
            },
            {
                "name": "StatefulPartitionedCall/Postprocessor/BatchMultiClassNonMaxSuppression/MultiClassNonMaxSuppression/Minimum",
                "op": "Const",
                "attr": {"value": {"tensor": {"dtype": "DT_INT32", "tensorShape": {}}}, "dtype": {"type": "DT_INT32"}}
            },
            {
                "name": "StatefulPartitionedCall/Postprocessor/BatchMultiClassNonMaxSuppression/MultiClassNonMaxSuppression/non_max_suppression_with_scores/iou_threshold",
                "op": "Const",
                "attr": {"value": {"tensor": {"dtype": "DT_FLOAT", "tensorShape": {}}}, "dtype": {"type": "DT_FLOAT"}}
            },
            {
                "name": "StatefulPartitionedCall/Postprocessor/BatchMultiClassNonMaxSuppression/MultiClassNonMaxSuppression/non_max_suppression_with_scores/score_threshold",
                "op": "Const",
                "attr": {"value": {"tensor": {"dtype": "DT_FLOAT", "tensorShape": {}}}, "dtype": {"type": "DT_FLOAT"}}
            },
            {
                "name": "StatefulPartitionedCall/Postprocessor/BatchMultiClassNonMaxSuppression/MultiClassNonMaxSuppression/non_max_suppression_with_scores/soft_nms_sigma",
                "op": "Const",
                "attr": {"dtype": {"type": "DT_FLOAT"}, "value": {"tensor": {"dtype": "DT_FLOAT", "tensorShape": {}}}}
            },
            {
                "name": "StatefulPartitionedCall/Postprocessor/BatchMultiClassNonMaxSuppression/MultiClassNonMaxSuppression/strided_slice_2/stack",
                "op": "Const",
                "attr": {
                    "value": {"tensor": {"dtype": "DT_INT32", "tensorShape": {"dim": [{"size": "1"}]}}},
                    "dtype": {"type": "DT_INT32"}
                }
            },
            {
                "name": "StatefulPartitionedCall/Postprocessor/BatchMultiClassNonMaxSuppression/MultiClassNonMaxSuppression/strided_slice_2/stack_1",
                "op": "Const",
                "attr": {
                    "value": {"tensor": {"dtype": "DT_INT32", "tensorShape": {"dim": [{"size": "1"}]}}},
                    "dtype": {"type": "DT_INT32"}
                }
            },
            {
                "name": "StatefulPartitionedCall/Postprocessor/BatchMultiClassNonMaxSuppression/MultiClassNonMaxSuppression/strided_slice_2/stack_2",
                "op": "Const",
                "attr": {
                    "value": {"tensor": {"dtype": "DT_INT32", "tensorShape": {"dim": [{"size": "1"}]}}},
                    "dtype": {"type": "DT_INT32"}
                }
            },
            {
                "name": "StatefulPartitionedCall/Postprocessor/BatchMultiClassNonMaxSuppression/MultiClassNonMaxSuppression/zeros/Reshape/shape",
                "op": "Const",
                "attr": {
                    "dtype": {"type": "DT_INT32"},
                    "value": {"tensor": {"dtype": "DT_INT32", "tensorShape": {"dim": [{"size": "1"}]}}}
                }
            },
            {
                "name": "StatefulPartitionedCall/Postprocessor/BatchMultiClassNonMaxSuppression/MultiClassNonMaxSuppression/zeros/Const",
                "op": "Const",
                "attr": {"value": {"tensor": {"dtype": "DT_INT32", "tensorShape": {}}}, "dtype": {"type": "DT_INT32"}}
            },
            {
                "name": "StatefulPartitionedCall/Postprocessor/BatchMultiClassNonMaxSuppression/MultiClassNonMaxSuppression/concat/axis",
                "op": "Const",
                "attr": {"value": {"tensor": {"dtype": "DT_INT32", "tensorShape": {}}}, "dtype": {"type": "DT_INT32"}}
            },
            {
                "name": "StatefulPartitionedCall/Postprocessor/BatchMultiClassNonMaxSuppression/MultiClassNonMaxSuppression/Gather/GatherV2_5/axis",
                "op": "Const",
                "attr": {"dtype": {"type": "DT_INT32"}, "value": {"tensor": {"dtype": "DT_INT32", "tensorShape": {}}}}
            },
            {
                "name": "StatefulPartitionedCall/Postprocessor/BatchMultiClassNonMaxSuppression/MultiClassNonMaxSuppression/Slice_1/begin",
                "op": "Const",
                "attr": {
                    "value": {"tensor": {"dtype": "DT_INT32", "tensorShape": {"dim": [{"size": "2"}]}}},
                    "dtype": {"type": "DT_INT32"}
                }
            },
            {
                "name": "StatefulPartitionedCall/Postprocessor/BatchMultiClassNonMaxSuppression/MultiClassNonMaxSuppression/stack_1",
                "op": "Const",
                "attr": {
                    "value": {"tensor": {"dtype": "DT_INT32", "tensorShape": {"dim": [{"size": "2"}]}}},
                    "dtype": {"type": "DT_INT32"}
                }
            },
            {
                "name": "StatefulPartitionedCall/Postprocessor/BatchMultiClassNonMaxSuppression/MultiClassNonMaxSuppression/Reshape_1/shape",
                "op": "Const",
                "attr": {
                    "dtype": {"type": "DT_INT32"},
                    "value": {"tensor": {"dtype": "DT_INT32", "tensorShape": {"dim": [{"size": "1"}]}}}
                }
            },
            {
                "name": "StatefulPartitionedCall/Postprocessor/BatchMultiClassNonMaxSuppression/MultiClassNonMaxSuppression/Minimum_1",
                "op": "Const",
                "attr": {"value": {"tensor": {"dtype": "DT_INT32", "tensorShape": {}}}, "dtype": {"type": "DT_INT32"}}
            },
            {
                "name": "StatefulPartitionedCall/Postprocessor/BatchMultiClassNonMaxSuppression/MultiClassNonMaxSuppression/non_max_suppression_with_scores_1/iou_threshold",
                "op": "Const",
                "attr": {"value": {"tensor": {"dtype": "DT_FLOAT", "tensorShape": {}}}, "dtype": {"type": "DT_FLOAT"}}
            },
            {
                "name": "StatefulPartitionedCall/Postprocessor/BatchMultiClassNonMaxSuppression/MultiClassNonMaxSuppression/non_max_suppression_with_scores_1/score_threshold",
                "op": "Const",
                "attr": {"dtype": {"type": "DT_FLOAT"}, "value": {"tensor": {"dtype": "DT_FLOAT", "tensorShape": {}}}}
            },
            {
                "name": "StatefulPartitionedCall/Postprocessor/BatchMultiClassNonMaxSuppression/MultiClassNonMaxSuppression/non_max_suppression_with_scores_1/soft_nms_sigma",
                "op": "Const",
                "attr": {"value": {"tensor": {"dtype": "DT_FLOAT", "tensorShape": {}}}, "dtype": {"type": "DT_FLOAT"}}
            },
            {
                "name": "StatefulPartitionedCall/Postprocessor/BatchMultiClassNonMaxSuppression/MultiClassNonMaxSuppression/strided_slice_4/stack",
                "op": "Const",
                "attr": {
                    "value": {"tensor": {"dtype": "DT_INT32", "tensorShape": {"dim": [{"size": "1"}]}}},
                    "dtype": {"type": "DT_INT32"}
                }
            },
            {
                "name": "StatefulPartitionedCall/Postprocessor/BatchMultiClassNonMaxSuppression/MultiClassNonMaxSuppression/strided_slice_4/stack_1",
                "op": "Const",
                "attr": {
                    "value": {"tensor": {"dtype": "DT_INT32", "tensorShape": {"dim": [{"size": "1"}]}}},
                    "dtype": {"type": "DT_INT32"}
                }
            },
            {
                "name": "StatefulPartitionedCall/Postprocessor/BatchMultiClassNonMaxSuppression/MultiClassNonMaxSuppression/strided_slice_4/stack_2",
                "op": "Const",
                "attr": {
                    "value": {"tensor": {"dtype": "DT_INT32", "tensorShape": {"dim": [{"size": "1"}]}}},
                    "dtype": {"type": "DT_INT32"}
                }
            },
            {
                "name": "StatefulPartitionedCall/Postprocessor/BatchMultiClassNonMaxSuppression/MultiClassNonMaxSuppression/zeros_2/Reshape/shape",
                "op": "Const",
                "attr": {
                    "value": {"tensor": {"dtype": "DT_INT32", "tensorShape": {"dim": [{"size": "1"}]}}},
                    "dtype": {"type": "DT_INT32"}
                }
            },
            {
                "name": "StatefulPartitionedCall/Postprocessor/BatchMultiClassNonMaxSuppression/MultiClassNonMaxSuppression/zeros_2/Const",
                "op": "Const",
                "attr": {"dtype": {"type": "DT_INT32"}, "value": {"tensor": {"dtype": "DT_INT32", "tensorShape": {}}}}
            },
            {
                "name": "StatefulPartitionedCall/Postprocessor/BatchMultiClassNonMaxSuppression/MultiClassNonMaxSuppression/concat_2/axis",
                "op": "Const",
                "attr": {"value": {"tensor": {"dtype": "DT_INT32", "tensorShape": {}}}, "dtype": {"type": "DT_INT32"}}
            },
            {
                "name": "StatefulPartitionedCall/Postprocessor/BatchMultiClassNonMaxSuppression/MultiClassNonMaxSuppression/Gather_1/GatherV2_5/axis",
                "op": "Const",
                "attr": {"dtype": {"type": "DT_INT32"}, "value": {"tensor": {"dtype": "DT_INT32", "tensorShape": {}}}}
            },
            {
                "name": "StatefulPartitionedCall/Postprocessor/BatchMultiClassNonMaxSuppression/MultiClassNonMaxSuppression/Slice_2/begin",
                "op": "Const",
                "attr": {
                    "dtype": {"type": "DT_INT32"},
                    "value": {"tensor": {"dtype": "DT_INT32", "tensorShape": {"dim": [{"size": "2"}]}}}
                }
            },
            {
                "name": "StatefulPartitionedCall/Postprocessor/BatchMultiClassNonMaxSuppression/MultiClassNonMaxSuppression/stack_2",
                "op": "Const",
                "attr": {
                    "value": {"tensor": {"dtype": "DT_INT32", "tensorShape": {"dim": [{"size": "2"}]}}},
                    "dtype": {"type": "DT_INT32"}
                }
            },
            {
                "name": "StatefulPartitionedCall/Postprocessor/BatchMultiClassNonMaxSuppression/MultiClassNonMaxSuppression/Reshape_2/shape",
                "op": "Const",
                "attr": {
                    "dtype": {"type": "DT_INT32"},
                    "value": {"tensor": {"dtype": "DT_INT32", "tensorShape": {"dim": [{"size": "1"}]}}}
                }
            },
            {
                "name": "StatefulPartitionedCall/Postprocessor/BatchMultiClassNonMaxSuppression/MultiClassNonMaxSuppression/Minimum_2",
                "op": "Const",
                "attr": {"value": {"tensor": {"dtype": "DT_INT32", "tensorShape": {}}}, "dtype": {"type": "DT_INT32"}}
            },
            {
                "name": "StatefulPartitionedCall/Postprocessor/BatchMultiClassNonMaxSuppression/MultiClassNonMaxSuppression/non_max_suppression_with_scores_2/iou_threshold",
                "op": "Const",
                "attr": {"value": {"tensor": {"dtype": "DT_FLOAT", "tensorShape": {}}}, "dtype": {"type": "DT_FLOAT"}}
            },
            {
                "name": "StatefulPartitionedCall/Postprocessor/BatchMultiClassNonMaxSuppression/MultiClassNonMaxSuppression/non_max_suppression_with_scores_2/score_threshold",
                "op": "Const",
                "attr": {"dtype": {"type": "DT_FLOAT"}, "value": {"tensor": {"dtype": "DT_FLOAT", "tensorShape": {}}}}
            },
            {
                "name": "StatefulPartitionedCall/Postprocessor/BatchMultiClassNonMaxSuppression/MultiClassNonMaxSuppression/non_max_suppression_with_scores_2/soft_nms_sigma",
                "op": "Const",
                "attr": {"value": {"tensor": {"dtype": "DT_FLOAT", "tensorShape": {}}}, "dtype": {"type": "DT_FLOAT"}}
            },
            {
                "name": "StatefulPartitionedCall/Postprocessor/BatchMultiClassNonMaxSuppression/MultiClassNonMaxSuppression/strided_slice_6/stack",
                "op": "Const",
                "attr": {
                    "dtype": {"type": "DT_INT32"},
                    "value": {"tensor": {"dtype": "DT_INT32", "tensorShape": {"dim": [{"size": "1"}]}}}
                }
            },
            {
                "name": "StatefulPartitionedCall/Postprocessor/BatchMultiClassNonMaxSuppression/MultiClassNonMaxSuppression/strided_slice_6/stack_1",
                "op": "Const",
                "attr": {
                    "dtype": {"type": "DT_INT32"},
                    "value": {"tensor": {"dtype": "DT_INT32", "tensorShape": {"dim": [{"size": "1"}]}}}
                }
            },
            {
                "name": "StatefulPartitionedCall/Postprocessor/BatchMultiClassNonMaxSuppression/MultiClassNonMaxSuppression/strided_slice_6/stack_2",
                "op": "Const",
                "attr": {
                    "value": {"tensor": {"dtype": "DT_INT32", "tensorShape": {"dim": [{"size": "1"}]}}},
                    "dtype": {"type": "DT_INT32"}
                }
            },
            {
                "name": "StatefulPartitionedCall/Postprocessor/BatchMultiClassNonMaxSuppression/MultiClassNonMaxSuppression/zeros_4/Reshape/shape",
                "op": "Const",
                "attr": {
                    "dtype": {"type": "DT_INT32"},
                    "value": {"tensor": {"dtype": "DT_INT32", "tensorShape": {"dim": [{"size": "1"}]}}}
                }
            },
            {
                "name": "StatefulPartitionedCall/Postprocessor/BatchMultiClassNonMaxSuppression/MultiClassNonMaxSuppression/zeros_4/Const",
                "op": "Const",
                "attr": {"value": {"tensor": {"dtype": "DT_INT32", "tensorShape": {}}}, "dtype": {"type": "DT_INT32"}}
            },
            {
                "name": "StatefulPartitionedCall/Postprocessor/BatchMultiClassNonMaxSuppression/MultiClassNonMaxSuppression/concat_4/axis",
                "op": "Const",
                "attr": {"dtype": {"type": "DT_INT32"}, "value": {"tensor": {"dtype": "DT_INT32", "tensorShape": {}}}}
            },
            {
                "name": "StatefulPartitionedCall/Postprocessor/BatchMultiClassNonMaxSuppression/MultiClassNonMaxSuppression/Gather_2/GatherV2_5/axis",
                "op": "Const",
                "attr": {"value": {"tensor": {"dtype": "DT_INT32", "tensorShape": {}}}, "dtype": {"type": "DT_INT32"}}
            },
            {
                "name": "StatefulPartitionedCall/Postprocessor/BatchMultiClassNonMaxSuppression/MultiClassNonMaxSuppression/Slice_3/begin",
                "op": "Const",
                "attr": {
                    "dtype": {"type": "DT_INT32"},
                    "value": {"tensor": {"dtype": "DT_INT32", "tensorShape": {"dim": [{"size": "2"}]}}}
                }
            },
            {
                "name": "StatefulPartitionedCall/Postprocessor/BatchMultiClassNonMaxSuppression/MultiClassNonMaxSuppression/stack_3",
                "op": "Const",
                "attr": {
                    "value": {"tensor": {"dtype": "DT_INT32", "tensorShape": {"dim": [{"size": "2"}]}}},
                    "dtype": {"type": "DT_INT32"}
                }
            },
            {
                "name": "StatefulPartitionedCall/Postprocessor/BatchMultiClassNonMaxSuppression/MultiClassNonMaxSuppression/Reshape_3/shape",
                "op": "Const",
                "attr": {
                    "dtype": {"type": "DT_INT32"},
                    "value": {"tensor": {"dtype": "DT_INT32", "tensorShape": {"dim": [{"size": "1"}]}}}
                }
            },
            {
                "name": "StatefulPartitionedCall/Postprocessor/BatchMultiClassNonMaxSuppression/MultiClassNonMaxSuppression/Minimum_3",
                "op": "Const",
                "attr": {"value": {"tensor": {"dtype": "DT_INT32", "tensorShape": {}}}, "dtype": {"type": "DT_INT32"}}
            },
            {
                "name": "StatefulPartitionedCall/Postprocessor/BatchMultiClassNonMaxSuppression/MultiClassNonMaxSuppression/non_max_suppression_with_scores_3/iou_threshold",
                "op": "Const",
                "attr": {"value": {"tensor": {"dtype": "DT_FLOAT", "tensorShape": {}}}, "dtype": {"type": "DT_FLOAT"}}
            },
            {
                "name": "StatefulPartitionedCall/Postprocessor/BatchMultiClassNonMaxSuppression/MultiClassNonMaxSuppression/non_max_suppression_with_scores_3/score_threshold",
                "op": "Const",
                "attr": {"dtype": {"type": "DT_FLOAT"}, "value": {"tensor": {"dtype": "DT_FLOAT", "tensorShape": {}}}}
            },
            {
                "name": "StatefulPartitionedCall/Postprocessor/BatchMultiClassNonMaxSuppression/MultiClassNonMaxSuppression/non_max_suppression_with_scores_3/soft_nms_sigma",
                "op": "Const",
                "attr": {"value": {"tensor": {"dtype": "DT_FLOAT", "tensorShape": {}}}, "dtype": {"type": "DT_FLOAT"}}
            },
            {
                "name": "StatefulPartitionedCall/Postprocessor/BatchMultiClassNonMaxSuppression/MultiClassNonMaxSuppression/strided_slice_8/stack",
                "op": "Const",
                "attr": {
                    "dtype": {"type": "DT_INT32"},
                    "value": {"tensor": {"dtype": "DT_INT32", "tensorShape": {"dim": [{"size": "1"}]}}}
                }
            },
            {
                "name": "StatefulPartitionedCall/Postprocessor/BatchMultiClassNonMaxSuppression/MultiClassNonMaxSuppression/strided_slice_8/stack_1",
                "op": "Const",
                "attr": {
                    "dtype": {"type": "DT_INT32"},
                    "value": {"tensor": {"dtype": "DT_INT32", "tensorShape": {"dim": [{"size": "1"}]}}}
                }
            },
            {
                "name": "StatefulPartitionedCall/Postprocessor/BatchMultiClassNonMaxSuppression/MultiClassNonMaxSuppression/strided_slice_8/stack_2",
                "op": "Const",
                "attr": {
                    "dtype": {"type": "DT_INT32"},
                    "value": {"tensor": {"dtype": "DT_INT32", "tensorShape": {"dim": [{"size": "1"}]}}}
                }
            },
            {
                "name": "StatefulPartitionedCall/Postprocessor/BatchMultiClassNonMaxSuppression/MultiClassNonMaxSuppression/zeros_6/Reshape/shape",
                "op": "Const",
                "attr": {
                    "value": {"tensor": {"dtype": "DT_INT32", "tensorShape": {"dim": [{"size": "1"}]}}},
                    "dtype": {"type": "DT_INT32"}
                }
            },
            {
                "name": "StatefulPartitionedCall/Postprocessor/BatchMultiClassNonMaxSuppression/MultiClassNonMaxSuppression/zeros_6/Const",
                "op": "Const",
                "attr": {"dtype": {"type": "DT_INT32"}, "value": {"tensor": {"dtype": "DT_INT32", "tensorShape": {}}}}
            },
            {
                "name": "StatefulPartitionedCall/Postprocessor/BatchMultiClassNonMaxSuppression/MultiClassNonMaxSuppression/concat_6/axis",
                "op": "Const",
                "attr": {"dtype": {"type": "DT_INT32"}, "value": {"tensor": {"dtype": "DT_INT32", "tensorShape": {}}}}
            },
            {
                "name": "StatefulPartitionedCall/Postprocessor/BatchMultiClassNonMaxSuppression/MultiClassNonMaxSuppression/Gather_3/GatherV2_5/axis",
                "op": "Const",
                "attr": {"value": {"tensor": {"dtype": "DT_INT32", "tensorShape": {}}}, "dtype": {"type": "DT_INT32"}}
            },
            {
                "name": "StatefulPartitionedCall/Postprocessor/BatchMultiClassNonMaxSuppression/MultiClassNonMaxSuppression/Slice_4/begin",
                "op": "Const",
                "attr": {
                    "value": {"tensor": {"dtype": "DT_INT32", "tensorShape": {"dim": [{"size": "2"}]}}},
                    "dtype": {"type": "DT_INT32"}
                }
            },
            {
                "name": "StatefulPartitionedCall/Postprocessor/BatchMultiClassNonMaxSuppression/MultiClassNonMaxSuppression/stack_4",
                "op": "Const",
                "attr": {
                    "value": {"tensor": {"dtype": "DT_INT32", "tensorShape": {"dim": [{"size": "2"}]}}},
                    "dtype": {"type": "DT_INT32"}
                }
            },
            {
                "name": "StatefulPartitionedCall/Postprocessor/BatchMultiClassNonMaxSuppression/MultiClassNonMaxSuppression/Reshape_4/shape",
                "op": "Const",
                "attr": {
                    "dtype": {"type": "DT_INT32"},
                    "value": {"tensor": {"dtype": "DT_INT32", "tensorShape": {"dim": [{"size": "1"}]}}}
                }
            },
            {
                "name": "StatefulPartitionedCall/Postprocessor/BatchMultiClassNonMaxSuppression/MultiClassNonMaxSuppression/Minimum_4",
                "op": "Const",
                "attr": {"dtype": {"type": "DT_INT32"}, "value": {"tensor": {"dtype": "DT_INT32", "tensorShape": {}}}}
            },
            {
                "name": "StatefulPartitionedCall/Postprocessor/BatchMultiClassNonMaxSuppression/MultiClassNonMaxSuppression/non_max_suppression_with_scores_4/iou_threshold",
                "op": "Const",
                "attr": {"value": {"tensor": {"dtype": "DT_FLOAT", "tensorShape": {}}}, "dtype": {"type": "DT_FLOAT"}}
            },
            {
                "name": "StatefulPartitionedCall/Postprocessor/BatchMultiClassNonMaxSuppression/MultiClassNonMaxSuppression/non_max_suppression_with_scores_4/score_threshold",
                "op": "Const",
                "attr": {"value": {"tensor": {"dtype": "DT_FLOAT", "tensorShape": {}}}, "dtype": {"type": "DT_FLOAT"}}
            },
            {
                "name": "StatefulPartitionedCall/Postprocessor/BatchMultiClassNonMaxSuppression/MultiClassNonMaxSuppression/non_max_suppression_with_scores_4/soft_nms_sigma",
                "op": "Const",
                "attr": {"dtype": {"type": "DT_FLOAT"}, "value": {"tensor": {"dtype": "DT_FLOAT", "tensorShape": {}}}}
            },
            {
                "name": "StatefulPartitionedCall/Postprocessor/BatchMultiClassNonMaxSuppression/MultiClassNonMaxSuppression/strided_slice_10/stack",
                "op": "Const",
                "attr": {
                    "dtype": {"type": "DT_INT32"},
                    "value": {"tensor": {"dtype": "DT_INT32", "tensorShape": {"dim": [{"size": "1"}]}}}
                }
            },
            {
                "name": "StatefulPartitionedCall/Postprocessor/BatchMultiClassNonMaxSuppression/MultiClassNonMaxSuppression/strided_slice_10/stack_1",
                "op": "Const",
                "attr": {
                    "dtype": {"type": "DT_INT32"},
                    "value": {"tensor": {"dtype": "DT_INT32", "tensorShape": {"dim": [{"size": "1"}]}}}
                }
            },
            {
                "name": "StatefulPartitionedCall/Postprocessor/BatchMultiClassNonMaxSuppression/MultiClassNonMaxSuppression/strided_slice_10/stack_2",
                "op": "Const",
                "attr": {
                    "value": {"tensor": {"dtype": "DT_INT32", "tensorShape": {"dim": [{"size": "1"}]}}},
                    "dtype": {"type": "DT_INT32"}
                }
            },
            {
                "name": "StatefulPartitionedCall/Postprocessor/BatchMultiClassNonMaxSuppression/MultiClassNonMaxSuppression/zeros_8/Reshape/shape",
                "op": "Const",
                "attr": {
                    "dtype": {"type": "DT_INT32"},
                    "value": {"tensor": {"dtype": "DT_INT32", "tensorShape": {"dim": [{"size": "1"}]}}}
                }
            },
            {
…
                {"name": "StatefulPartitionedCall/map/TensorArrayV2_1/element_shape", "shape": [], "dtype": "int32"},
                {"name": "StatefulPartitionedCall/map/TensorArrayV2_1/num_elements", "shape": [], "dtype": "int32"},
                {"name": "StatefulPartitionedCall/map/TensorArrayV2_2/element_shape", "shape": [], "dtype": "int32"},
                {"name": "StatefulPartitionedCall/map/TensorArrayV2_2/num_elements", "shape": [], "dtype": "int32"},
                {
                    "name": "StatefulPartitionedCall/map/TensorArrayUnstack/TensorListFromTensor/element_shape",
                    "shape": [3],
                    "dtype": "int32"
                },
                {
                    "name": "StatefulPartitionedCall/map/TensorArrayV2Stack_1/TensorListStack/element_shape",
                    "shape": [1],
                    "dtype": "int32"
                },
                {
                    "name": "ConstantFolding/StatefulPartitionedCall/Postprocessor/truediv_1_recip",
                    "shape": [],
                    "dtype": "float32"
                },
                {
                    "name": "StatefulPartitionedCall/Postprocessor/BatchMultiClassNonMaxSuppression/MultiClassNonMaxSuppression/ClipToWindow/strided_slice_1/stack",
                    "shape": [1],
                    "dtype": "int32"
                },
                {
                    "name": "StatefulPartitionedCall/Postprocessor/BatchMultiClassNonMaxSuppression/MultiClassNonMaxSuppression/ClipToWindow/strided_slice_1/stack_1",
                    "shape": [1],
                    "dtype": "int32"
                },
                {
                    "name": "StatefulPartitionedCall/Postprocessor/BatchMultiClassNonMaxSuppression/MultiClassNonMaxSuppression/ClipToWindow/strided_slice_1/stack_2",
                    "shape": [1],
                    "dtype": "int32"
                },
                {
                    "name": "StatefulPartitionedCall/Postprocessor/BatchMultiClassNonMaxSuppression/MultiClassNonMaxSuppression/ClipToWindow/concat/axis",
                    "shape": [],
                    "dtype": "int32"
                },
                {
                    "name": "StatefulPartitionedCall/Postprocessor/BatchMultiClassNonMaxSuppression/MultiClassNonMaxSuppression/ClipToWindow/Greater/y",
                    "shape": [],
                    "dtype": "float32"
                },
                {
                    "name": "StatefulPartitionedCall/Postprocessor/BatchMultiClassNonMaxSuppression/MultiClassNonMaxSuppression/ClipToWindow/Reshape/shape",
                    "shape": [1],
                    "dtype": "int32"
                },
                {
                    "name": "StatefulPartitionedCall/Postprocessor/BatchMultiClassNonMaxSuppression/MultiClassNonMaxSuppression/ClipToWindow/Gather/GatherV2_6/axis",
                    "shape": [],
                    "dtype": "int32"
                },
                {
                    "name": "StatefulPartitionedCall/Postprocessor/BatchMultiClassNonMaxSuppression/MultiClassNonMaxSuppression/strided_slice_51/stack",
                    "shape": [1],
                    "dtype": "int32"
                },
                {
                    "name": "StatefulPartitionedCall/Postprocessor/BatchMultiClassNonMaxSuppression/MultiClassNonMaxSuppression/strided_slice_51/stack_1",
                    "shape": [1],
                    "dtype": "int32"
                },
                {
                    "name": "StatefulPartitionedCall/Postprocessor/BatchMultiClassNonMaxSuppression/MultiClassNonMaxSuppression/strided_slice_51/stack_2",
                    "shape": [1],
                    "dtype": "int32"
                },
                {
                    "name": "StatefulPartitionedCall/Postprocessor/BatchMultiClassNonMaxSuppression/MultiClassNonMaxSuppression/ones_25/Reshape/shape",
                    "shape": [1],
                    "dtype": "int32"
                },
                {
                    "name": "StatefulPartitionedCall/Postprocessor/BatchMultiClassNonMaxSuppression/MultiClassNonMaxSuppression/ones_25/Const",
                    "shape": [],
                    "dtype": "float32"
                },
                {
                    "name": "StatefulPartitionedCall/ssd_mobile_net_v2fpn_keras_feature_extractor/model/Conv1/Conv2D_weights",
                    "shape": [3, 3, 3, 32],
                    "dtype": "float32"
                },
                {
                    "name": "StatefulPartitionedCall/ssd_mobile_net_v2fpn_keras_feature_extractor/model/Conv1/Conv2D_bn_offset",
                    "shape": [32],
                    "dtype": "float32"
                },
                {
                    "name": "StatefulPartitionedCall/ssd_mobile_net_v2fpn_keras_feature_extractor/model/expanded_conv_depthwise/depthwise_weights",
                    "shape": [3, 3, 32, 1],
                    "dtype": "float32"
                },
                {
                    "name": "StatefulPartitionedCall/ssd_mobile_net_v2fpn_keras_feature_extractor/model/expanded_conv_depthwise/depthwise_bn_offset",
                    "shape": [32],
                    "dtype": "float32"
                },
                {
                    "name": "StatefulPartitionedCall/ssd_mobile_net_v2fpn_keras_feature_extractor/model/expanded_conv_project/Conv2D_weights",
                    "shape": [1, 1, 32, 16],
                    "dtype": "float32"
                },
                {
                    "name": "StatefulPartitionedCall/ssd_mobile_net_v2fpn_keras_feature_extractor/model/expanded_conv_project/Conv2D_bn_offset",
                    "shape": [16],
                    "dtype": "float32"
                },
                {
                    "name": "StatefulPartitionedCall/ssd_mobile_net_v2fpn_keras_feature_extractor/model/block_1_expand/Conv2D_weights",
                    "shape": [1, 1, 16, 96],
                    "dtype": "float32"
                },
                {
                    "name": "StatefulPartitionedCall/ssd_mobile_net_v2fpn_keras_feature_extractor/model/block_1_expand/Conv2D_bn_offset",
                    "shape": [96],
                    "dtype": "float32"
                },
                {
                    "name": "StatefulPartitionedCall/ssd_mobile_net_v2fpn_keras_feature_extractor/model/block_1_depthwise/depthwise_weights",
                    "shape": [3, 3, 96, 1],
                    "dtype": "float32"
                },
                {
                    "name": "StatefulPartitionedCall/ssd_mobile_net_v2fpn_keras_feature_extractor/model/block_1_depthwise/depthwise_bn_offset",
                    "shape": [96],
                    "dtype": "float32"
                },
                {
                    "name": "StatefulPartitionedCall/ssd_mobile_net_v2fpn_keras_feature_extractor/model/block_1_project/Conv2D_weights",
                    "shape": [1, 1, 96, 24],
                    "dtype": "float32"
                },
                {
                    "name": "StatefulPartitionedCall/ssd_mobile_net_v2fpn_keras_feature_extractor/model/block_1_project/Conv2D_bn_offset",
                    "shape": [24],
                    "dtype": "float32"
                },
                {
                    "name": "StatefulPartitionedCall/ssd_mobile_net_v2fpn_keras_feature_extractor/model/block_2_expand/Conv2D_weights",
                    "shape": [1, 1, 24, 144],
                    "dtype": "float32"
                },
                {
                    "name": "StatefulPartitionedCall/ssd_mobile_net_v2fpn_keras_feature_extractor/model/block_2_expand/Conv2D_bn_offset",
                    "shape": [144],
                    "dtype": "float32"
                },
                {
                    "name": "StatefulPartitionedCall/ssd_mobile_net_v2fpn_keras_feature_extractor/model/block_2_depthwise/depthwise_weights",
                    "shape": [3, 3, 144, 1],
                    "dtype": "float32"
                },
                {
                    "name": "StatefulPartitionedCall/ssd_mobile_net_v2fpn_keras_feature_extractor/model/block_2_depthwise/depthwise_bn_offset",
                    "shape": [144],
                    "dtype": "float32"
                },
                {
                    "name": "StatefulPartitionedCall/ssd_mobile_net_v2fpn_keras_feature_extractor/model/block_2_project/Conv2D_weights",
                    "shape": [1, 1, 144, 24],
                    "dtype": "float32"
                },
                {
                    "name": "StatefulPartitionedCall/ssd_mobile_net_v2fpn_keras_feature_extractor/model/block_2_project/Conv2D_bn_offset",
                    "shape": [24],
                    "dtype": "float32"
                },
                {
                    "name": "StatefulPartitionedCall/ssd_mobile_net_v2fpn_keras_feature_extractor/model/block_3_expand/Conv2D_weights",
                    "shape": [1, 1, 24, 144],
                    "dtype": "float32"
                },
                {
                    "name": "StatefulPartitionedCall/ssd_mobile_net_v2fpn_keras_feature_extractor/model/block_3_expand/Conv2D_bn_offset",
                    "shape": [144],
                    "dtype": "float32"
                },
                {
                    "name": "StatefulPartitionedCall/ssd_mobile_net_v2fpn_keras_feature_extractor/model/block_3_depthwise/depthwise_weights",
                    "shape": [3, 3, 144, 1],
                    "dtype": "float32"
                },
                {
                    "name": "StatefulPartitionedCall/ssd_mobile_net_v2fpn_keras_feature_extractor/model/block_3_depthwise/depthwise_bn_offset",
                    "shape": [144],
                    "dtype": "float32"
                },
                {
                    "name": "StatefulPartitionedCall/ssd_mobile_net_v2fpn_keras_feature_extractor/model/block_3_project/Conv2D_weights",
                    "shape": [1, 1, 144, 32],
                    "dtype": "float32"
                },
                {
                    "name": "StatefulPartitionedCall/ssd_mobile_net_v2fpn_keras_feature_extractor/model/block_3_project/Conv2D_bn_offset",
                    "shape": [32],
                    "dtype": "float32"
                },
                {
                    "name": "StatefulPartitionedCall/ssd_mobile_net_v2fpn_keras_feature_extractor/model/block_4_expand/Conv2D_weights",
                    "shape": [1, 1, 32, 192],
                    "dtype": "float32"
                },
                {
                    "name": "StatefulPartitionedCall/ssd_mobile_net_v2fpn_keras_feature_extractor/model/block_4_expand/Conv2D_bn_offset",
                    "shape": [192],
                    "dtype": "float32"
                },
                {
                    "name": "StatefulPartitionedCall/ssd_mobile_net_v2fpn_keras_feature_extractor/model/block_4_depthwise/depthwise_weights",
                    "shape": [3, 3, 192, 1],
                    "dtype": "float32"
                },
                {
                    "name": "StatefulPartitionedCall/ssd_mobile_net_v2fpn_keras_feature_extractor/model/block_4_depthwise/depthwise_bn_offset",
                    "shape": [192],
                    "dtype": "float32"
                },
                {
                    "name": "StatefulPartitionedCall/ssd_mobile_net_v2fpn_keras_feature_extractor/model/block_4_project/Conv2D_weights",
                    "shape": [1, 1, 192, 32],
                    "dtype": "float32"
                },
                {
                    "name": "StatefulPartitionedCall/ssd_mobile_net_v2fpn_keras_feature_extractor/model/block_4_project/Conv2D_bn_offset",
                    "shape": [32],
                    "dtype": "float32"
                },
                {
                    "name": "StatefulPartitionedCall/ssd_mobile_net_v2fpn_keras_feature_extractor/model/block_5_expand/Conv2D_weights",
                    "shape": [1, 1, 32, 192],
                    "dtype": "float32"
                },
                {
                    "name": "StatefulPartitionedCall/ssd_mobile_net_v2fpn_keras_feature_extractor/model/block_5_expand/Conv2D_bn_offset",
                    "shape": [192],
                    "dtype": "float32"
                },
                {
                    "name": "StatefulPartitionedCall/ssd_mobile_net_v2fpn_keras_feature_extractor/model/block_5_depthwise/depthwise_weights",
                    "shape": [3, 3, 192, 1],
                    "dtype": "float32"
                },
                {
                    "name": "StatefulPartitionedCall/ssd_mobile_net_v2fpn_keras_feature_extractor/model/block_5_depthwise/depthwise_bn_offset",
                    "shape": [192],
                    "dtype": "float32"
                },
                {
                    "name": "StatefulPartitionedCall/ssd_mobile_net_v2fpn_keras_feature_extractor/model/block_5_project/Conv2D_weights",
                    "shape": [1, 1, 192, 32],
                    "dtype": "float32"
                },
                {
                    "name": "StatefulPartitionedCall/ssd_mobile_net_v2fpn_keras_feature_extractor/model/block_5_project/Conv2D_bn_offset",
                    "shape": [32],
                    "dtype": "float32"
                },
                {
                    "name": "StatefulPartitionedCall/ssd_mobile_net_v2fpn_keras_feature_extractor/model/block_6_expand/Conv2D_weights",
                    "shape": [1, 1, 32, 192],
                    "dtype": "float32"
                },
                {
                    "name": "StatefulPartitionedCall/ssd_mobile_net_v2fpn_keras_feature_extractor/model/block_6_expand/Conv2D_bn_offset",
                    "shape": [192],
                    "dtype": "float32"
                },
                {
                    "name": "StatefulPartitionedCall/ssd_mobile_net_v2fpn_keras_feature_extractor/model/block_6_depthwise/depthwise_weights",
                    "shape": [3, 3, 192, 1],
                    "dtype": "float32"
                },
                {
                    "name": "StatefulPartitionedCall/ssd_mobile_net_v2fpn_keras_feature_extractor/model/block_6_depthwise/depthwise_bn_offset",
                    "shape": [192],
                    "dtype": "float32"
                },
                {
                    "name": "StatefulPartitionedCall/ssd_mobile_net_v2fpn_keras_feature_extractor/model/block_6_project/Conv2D_weights",
                    "shape": [1, 1, 192, 64],
                    "dtype": "float32"
                },
                {
                    "name": "StatefulPartitionedCall/ssd_mobile_net_v2fpn_keras_feature_extractor/model/block_6_project/Conv2D_bn_offset",
                    "shape": [64],
                    "dtype": "float32"
                },
                {
                    "name": "StatefulPartitionedCall/ssd_mobile_net_v2fpn_keras_feature_extractor/model/block_7_expand/Conv2D_weights",
                    "shape": [1, 1, 64, 384],
                    "dtype": "float32"
                },
                {
                    "name": "StatefulPartitionedCall/ssd_mobile_net_v2fpn_keras_feature_extractor/model/block_7_expand/Conv2D_bn_offset",
                    "shape": [384],
                    "dtype": "float32"
                },
                {
                    "name": "StatefulPartitionedCall/ssd_mobile_net_v2fpn_keras_feature_extractor/model/block_7_depthwise/depthwise_weights",
                    "shape": [3, 3, 384, 1],
                    "dtype": "float32"
                },
                {
                    "name": "StatefulPartitionedCall/ssd_mobile_net_v2fpn_keras_feature_extractor/model/block_7_depthwise/depthwise_bn_offset",
                    "shape": [384],
                    "dtype": "float32"
                },
                {
                    "name": "StatefulPartitionedCall/ssd_mobile_net_v2fpn_keras_feature_extractor/model/block_7_project/Conv2D_weights",
                    "shape": [1, 1, 384, 64],
                    "dtype": "float32"
                },
                {
                    "name": "StatefulPartitionedCall/ssd_mobile_net_v2fpn_keras_feature_extractor/model/block_7_project/Conv2D_bn_offset",
                    "shape": [64],
                    "dtype": "float32"
                },
                {
                    "name": "StatefulPartitionedCall/ssd_mobile_net_v2fpn_keras_feature_extractor/model/block_8_expand/Conv2D_weights",
                    "shape": [1, 1, 64, 384],
                    "dtype": "float32"
                },
                {
                    "name": "StatefulPartitionedCall/ssd_mobile_net_v2fpn_keras_feature_extractor/model/block_8_expand/Conv2D_bn_offset",
                    "shape": [384],
                    "dtype": "float32"
                },
                {
                    "name": "StatefulPartitionedCall/ssd_mobile_net_v2fpn_keras_feature_extractor/model/block_8_depthwise/depthwise_weights",
                    "shape": [3, 3, 384, 1],
                    "dtype": "float32"
                },
                {
                    "name": "StatefulPartitionedCall/ssd_mobile_net_v2fpn_keras_feature_extractor/model/block_8_depthwise/depthwise_bn_offset",
                    "shape": [384],
                    "dtype": "float32"
                },
                {
                    "name": "StatefulPartitionedCall/ssd_mobile_net_v2fpn_keras_feature_extractor/model/block_8_project/Conv2D_weights",
                    "shape": [1, 1, 384, 64],
                    "dtype": "float32"
                },
                {
                    "name": "StatefulPartitionedCall/ssd_mobile_net_v2fpn_keras_feature_extractor/model/block_8_project/Conv2D_bn_offset",
                    "shape": [64],
                    "dtype": "float32"
                },
                {
                    "name": "StatefulPartitionedCall/ssd_mobile_net_v2fpn_keras_feature_extractor/model/block_9_expand/Conv2D_weights",
                    "shape": [1, 1, 64, 384],
                    "dtype": "float32"
                },
                {
                    "name": "StatefulPartitionedCall/ssd_mobile_net_v2fpn_keras_feature_extractor/model/block_9_expand/Conv2D_bn_offset",
                    "shape": [384],
                    "dtype": "float32"
                },
                {
                    "name": "StatefulPartitionedCall/ssd_mobile_net_v2fpn_keras_feature_extractor/model/block_9_depthwise/depthwise_weights",
                    "shape": [3, 3, 384, 1],
                    "dtype": "float32"
                },
                {
                    "name": "StatefulPartitionedCall/ssd_mobile_net_v2fpn_keras_feature_extractor/model/block_9_depthwise/depthwise_bn_offset",
                    "shape": [384],
                    "dtype": "float32"
                },
                {
                    "name": "StatefulPartitionedCall/ssd_mobile_net_v2fpn_keras_feature_extractor/model/block_9_project/Conv2D_weights",
                    "shape": [1, 1, 384, 64],
                    "dtype": "float32"
                },
                {
                    "name": "StatefulPartitionedCall/ssd_mobile_net_v2fpn_keras_feature_extractor/model/block_9_project/Conv2D_bn_offset",
                    "shape": [64],
                    "dtype": "float32"
                },
                {
                    "name": "StatefulPartitionedCall/ssd_mobile_net_v2fpn_keras_feature_extractor/model/block_10_expand/Conv2D_weights",
                    "shape": [1, 1, 64, 384],
                    "dtype": "float32"
                },
                {
                    "name": "StatefulPartitionedCall/ssd_mobile_net_v2fpn_keras_feature_extractor/model/block_10_expand/Conv2D_bn_offset",
                    "shape": [384],
                    "dtype": "float32"
                },
                {
                    "name": "StatefulPartitionedCall/ssd_mobile_net_v2fpn_keras_feature_extractor/model/block_10_depthwise/depthwise_weights",
                    "shape": [3, 3, 384, 1],
                    "dtype": "float32"
                },
                {
                    "name": "StatefulPartitionedCall/ssd_mobile_net_v2fpn_keras_feature_extractor/model/block_10_depthwise/depthwise_bn_offset",
                    "shape": [384],
                    "dtype": "float32"
                },
                {
                    "name": "StatefulPartitionedCall/ssd_mobile_net_v2fpn_keras_feature_extractor/model/block_10_project/Conv2D_weights",
                    "shape": [1, 1, 384, 96],
                    "dtype": "float32"
                },
                {
                    "name": "StatefulPartitionedCall/ssd_mobile_net_v2fpn_keras_feature_extractor/model/block_10_project/Conv2D_bn_offset",
                    "shape": [96],
                    "dtype": "float32"
                },
                {
                    "name": "StatefulPartitionedCall/ssd_mobile_net_v2fpn_keras_feature_extractor/model/block_11_expand/Conv2D_weights",
                    "shape": [1, 1, 96, 576],
                    "dtype": "float32"
                },
                {
                    "name": "StatefulPartitionedCall/ssd_mobile_net_v2fpn_keras_feature_extractor/model/block_11_expand/Conv2D_bn_offset",
                    "shape": [576],
                    "dtype": "float32"
                },
                {
                    "name": "StatefulPartitionedCall/ssd_mobile_net_v2fpn_keras_feature_extractor/model/block_11_depthwise/depthwise_weights",
                    "shape": [3, 3, 576, 1],
                    "dtype": "float32"
                },
                {
                    "name": "StatefulPartitionedCall/ssd_mobile_net_v2fpn_keras_feature_extractor/model/block_11_depthwise/depthwise_bn_offset",
                    "shape": [576],
                    "dtype": "float32"
                },
                {
                    "name": "StatefulPartitionedCall/ssd_mobile_net_v2fpn_keras_feature_extractor/model/block_11_project/Conv2D_weights",
                    "shape": [1, 1, 576, 96],
                    "dtype": "float32"
                },
                {
                    "name": "StatefulPartitionedCall/ssd_mobile_net_v2fpn_keras_feature_extractor/model/block_11_project/Conv2D_bn_offset",
                    "shape": [96],
                    "dtype": "float32"
                },
                {
                    "name": "StatefulPartitionedCall/ssd_mobile_net_v2fpn_keras_feature_extractor/model/block_12_expand/Conv2D_weights",
                    "shape": [1, 1, 96, 576],
                    "dtype": "float32"
                },
                {
                    "name": "StatefulPartitionedCall/ssd_mobile_net_v2fpn_keras_feature_extractor/model/block_12_expand/Conv2D_bn_offset",
                    "shape": [576],
                    "dtype": "float32"
                },
                {
                    "name": "StatefulPartitionedCall/ssd_mobile_net_v2fpn_keras_feature_extractor/model/block_12_depthwise/depthwise_weights",
                    "shape": [3, 3, 576, 1],
                    "dtype": "float32"
                },
                {
                    "name": "StatefulPartitionedCall/ssd_mobile_net_v2fpn_keras_feature_extractor/model/block_12_depthwise/depthwise_bn_offset",
                    "shape": [576],
                    "dtype": "float32"
                },
                {
                    "name": "StatefulPartitionedCall/ssd_mobile_net_v2fpn_keras_feature_extractor/model/block_12_project/Conv2D_weights",
                    "shape": [1, 1, 576, 96],
                    "dtype": "float32"
                },
                {
                    "name": "StatefulPartitionedCall/ssd_mobile_net_v2fpn_keras_feature_extractor/model/block_12_project/Conv2D_bn_offset",
                    "shape": [96],
                    "dtype": "float32"
                },
                {
                    "name": "StatefulPartitionedCall/ssd_mobile_net_v2fpn_keras_feature_extractor/model/block_13_expand/Conv2D_weights",
                    "shape": [1, 1, 96, 576],
                    "dtype": "float32"
                },
                {
                    "name": "StatefulPartitionedCall/ssd_mobile_net_v2fpn_keras_feature_extractor/model/block_13_expand/Conv2D_bn_offset",
                    "shape": [576],
                    "dtype": "float32"
                },
                {
                    "name": "StatefulPartitionedCall/ssd_mobile_net_v2fpn_keras_feature_extractor/model/block_13_depthwise/depthwise_weights",
                    "shape": [3, 3, 576, 1],
                    "dtype": "float32"
                },
                {
                    "name": "StatefulPartitionedCall/ssd_mobile_net_v2fpn_keras_feature_extractor/model/block_13_depthwise/depthwise_bn_offset",
                    "shape": [576],
                    "dtype": "float32"
                },
                {
                    "name": "StatefulPartitionedCall/ssd_mobile_net_v2fpn_keras_feature_extractor/model/block_13_project/Conv2D_weights",
                    "shape": [1, 1, 576, 160],
                    "dtype": "float32"
                },
                {
                    "name": "StatefulPartitionedCall/ssd_mobile_net_v2fpn_keras_feature_extractor/model/block_13_project/Conv2D_bn_offset",
                    "shape": [160],
                    "dtype": "float32"
                },
                {
                    "name": "StatefulPartitionedCall/ssd_mobile_net_v2fpn_keras_feature_extractor/model/block_14_expand/Conv2D_weights",
                    "shape": [1, 1, 160, 960],
                    "dtype": "float32"
                },
                {
                    "name": "StatefulPartitionedCall/ssd_mobile_net_v2fpn_keras_feature_extractor/model/block_14_expand/Conv2D_bn_offset",
                    "shape": [960],
                    "dtype": "float32"
                },
                {
                    "name": "StatefulPartitionedCall/ssd_mobile_net_v2fpn_keras_feature_extractor/model/block_14_depthwise/depthwise_weights",
                    "shape": [3, 3, 960, 1],
                    "dtype": "float32"
                },
                {
                    "name": "StatefulPartitionedCall/ssd_mobile_net_v2fpn_keras_feature_extractor/model/block_14_depthwise/depthwise_bn_offset",
                    "shape": [960],
                    "dtype": "float32"
                },
                {
                    "name": "StatefulPartitionedCall/ssd_mobile_net_v2fpn_keras_feature_extractor/model/block_14_project/Conv2D_weights",
                    "shape": [1, 1, 960, 160],
                    "dtype": "float32"
                },
                {
                    "name": "StatefulPartitionedCall/ssd_mobile_net_v2fpn_keras_feature_extractor/model/block_14_project/Conv2D_bn_offset",
                    "shape": [160],
                    "dtype": "float32"
                },
                {
                    "name": "StatefulPartitionedCall/ssd_mobile_net_v2fpn_keras_feature_extractor/model/block_15_expand/Conv2D_weights",
                    "shape": [1, 1, 160, 960],
                    "dtype": "float32"
                },
                {
                    "name": "StatefulPartitionedCall/ssd_mobile_net_v2fpn_keras_feature_extractor/model/block_15_expand/Conv2D_bn_offset",
                    "shape": [960],
                    "dtype": "float32"
                },
                {
                    "name": "StatefulPartitionedCall/ssd_mobile_net_v2fpn_keras_feature_extractor/model/block_15_depthwise/depthwise_weights",
                    "shape": [3, 3, 960, 1],
                    "dtype": "float32"
                },
                {
                    "name": "StatefulPartitionedCall/ssd_mobile_net_v2fpn_keras_feature_extractor/model/block_15_depthwise/depthwise_bn_offset",
                    "shape": [960],
                    "dtype": "float32"
                },
                {
                    "name": "StatefulPartitionedCall/ssd_mobile_net_v2fpn_keras_feature_extractor/model/block_15_project/Conv2D_weights",
                    "shape": [1, 1, 960, 160],
                    "dtype": "float32"
                },
                {
                    "name": "StatefulPartitionedCall/ssd_mobile_net_v2fpn_keras_feature_extractor/model/block_15_project/Conv2D_bn_offset",
                    "shape": [160],
                    "dtype": "float32"
                },
                {
                    "name": "StatefulPartitionedCall/ssd_mobile_net_v2fpn_keras_feature_extractor/model/block_16_expand/Conv2D_weights",
                    "shape": [1, 1, 160, 960],
                    "dtype": "float32"
                },
                {
                    "name": "StatefulPartitionedCall/ssd_mobile_net_v2fpn_keras_feature_extractor/model/block_16_expand/Conv2D_bn_offset",
                    "shape": [960],
                    "dtype": "float32"
                },
                {
                    "name": "StatefulPartitionedCall/ssd_mobile_net_v2fpn_keras_feature_extractor/model/block_16_depthwise/depthwise_weights",
                    "shape": [3, 3, 960, 1],
                    "dtype": "float32"
                },
                {
                    "name": "StatefulPartitionedCall/ssd_mobile_net_v2fpn_keras_feature_extractor/model/block_16_depthwise/depthwise_bn_offset",
                    "shape": [960],
                    "dtype": "float32"
                },
                {
                    "name": "StatefulPartitionedCall/ssd_mobile_net_v2fpn_keras_feature_extractor/model/block_16_project/Conv2D_weights",
                    "shape": [1, 1, 960, 320],
                    "dtype": "float32"
                },
                {
                    "name": "StatefulPartitionedCall/ssd_mobile_net_v2fpn_keras_feature_extractor/model/block_16_project/Conv2D_bn_offset",
                    "shape": [320],
                    "dtype": "float32"
                },
                {
                    "name": "StatefulPartitionedCall/ssd_mobile_net_v2fpn_keras_feature_extractor/model/Conv_1/Conv2D_weights",
                    "shape": [1, 1, 320, 1280],
                    "dtype": "float32"
                },
                {
                    "name": "StatefulPartitionedCall/ssd_mobile_net_v2fpn_keras_feature_extractor/model/Conv_1/Conv2D_bn_offset",
                    "shape": [1280],
                    "dtype": "float32"
                },
                {
                    "name": "StatefulPartitionedCall/WeightSharedConvolutionalBoxPredictor/PredictionTower/conv2d_0/separable_conv2d_2_weights",
                    "shape": [1, 1, 128, 128],
                    "dtype": "float32"
                },
                {
                    "name": "StatefulPartitionedCall/WeightSharedConvolutionalBoxPredictor/PredictionTower/conv2d_0/separable_conv2d_2_bn_offset",
                    "shape": [128],
                    "dtype": "float32"
                },
                {
                    "name": "StatefulPartitionedCall/ssd_mobile_net_v2fpn_keras_feature_extractor/bottom_up_Conv2d_20_depthwise_conv/separable_conv2d_weights",
                    "shape": [1, 1, 128, 128],
                    "dtype": "float32"
                },
                {
                    "name": "StatefulPartitionedCall/ssd_mobile_net_v2fpn_keras_feature_extractor/bottom_up_Conv2d_20_depthwise_conv/separable_conv2d_bn_offset",
                    "shape": [128],
                    "dtype": "float32"
                },
                {
                    "name": "StatefulPartitionedCall/ssd_mobile_net_v2fpn_keras_feature_extractor/FeatureMaps/top_down/smoothing_2_depthwise_conv/separable_conv2d_weights",
                    "shape": [1, 1, 128, 128],
                    "dtype": "float32"
                },
                {
                    "name": "StatefulPartitionedCall/ssd_mobile_net_v2fpn_keras_feature_extractor/FeatureMaps/top_down/smoothing_2_depthwise_conv/separable_conv2d_bn_offset",
                    "shape": [128],
                    "dtype": "float32"
                },
                {
                    "name": "StatefulPartitionedCall/WeightSharedConvolutionalBoxPredictor/PredictionTower/conv2d_1/separable_conv2d_2_weights",
                    "shape": [1, 1, 128, 128],
                    "dtype": "float32"
                },
                {
                    "name": "StatefulPartitionedCall/WeightSharedConvolutionalBoxPredictor/PredictionTower/conv2d_1/separable_conv2d_2_bn_offset",
                    "shape": [128],
                    "dtype": "float32"
                },
                {
                    "name": "StatefulPartitionedCall/WeightSharedConvolutionalBoxPredictor/PredictionTower/conv2d_0/separable_conv2d_3_weights",
                    "shape": [1, 1, 128, 128],
                    "dtype": "float32"
                },
                {
                    "name": "StatefulPartitionedCall/WeightSharedConvolutionalBoxPredictor/PredictionTower/conv2d_0/separable_conv2d_3_bn_offset",
                    "shape": [128],
                    "dtype": "float32"
                },
                {
                    "name": "StatefulPartitionedCall/ssd_mobile_net_v2fpn_keras_feature_extractor/bottom_up_Conv2d_21_depthwise_conv/separable_conv2d_weights",
                    "shape": [1, 1, 128, 128],
                    "dtype": "float32"
                },
                {
                    "name": "StatefulPartitionedCall/ssd_mobile_net_v2fpn_keras_feature_extractor/bottom_up_Conv2d_21_depthwise_conv/separable_conv2d_bn_offset",
                    "shape": [128],
                    "dtype": "float32"
                },
                {
                    "name": "StatefulPartitionedCall/WeightSharedConvolutionalBoxPredictor/PredictionTower/conv2d_0/separable_conv2d_1_weights",
                    "shape": [1, 1, 128, 128],
                    "dtype": "float32"
                },
                {
                    "name": "StatefulPartitionedCall/WeightSharedConvolutionalBoxPredictor/PredictionTower/conv2d_0/separable_conv2d_1_bn_offset",
                    "shape": [128],
                    "dtype": "float32"
                },
                {
                    "name": "StatefulPartitionedCall/WeightSharedConvolutionalBoxPredictor/PredictionTower/conv2d_2/separable_conv2d_2_weights",
                    "shape": [1, 1, 128, 128],
                    "dtype": "float32"
                },
                {
                    "name": "StatefulPartitionedCall/WeightSharedConvolutionalBoxPredictor/PredictionTower/conv2d_2/separable_conv2d_2_bn_offset",
                    "shape": [128],
                    "dtype": "float32"
                },
                {
                    "name": "StatefulPartitionedCall/WeightSharedConvolutionalBoxPredictor/PredictionTower/conv2d_1/separable_conv2d_3_weights",
                    "shape": [1, 1, 128, 128],
                    "dtype": "float32"
                },
                {
                    "name": "StatefulPartitionedCall/WeightSharedConvolutionalBoxPredictor/PredictionTower/conv2d_1/separable_conv2d_3_bn_offset",
                    "shape": [128],
                    "dtype": "float32"
                },
                {
                    "name": "StatefulPartitionedCall/WeightSharedConvolutionalBoxPredictor/PredictionTower/conv2d_0/separable_conv2d_4_weights",
                    "shape": [1, 1, 128, 128],
                    "dtype": "float32"
                },
                {
                    "name": "StatefulPartitionedCall/WeightSharedConvolutionalBoxPredictor/PredictionTower/conv2d_0/separable_conv2d_4_bn_offset",
                    "shape": [128],
                    "dtype": "float32"
                },
                {
                    "name": "StatefulPartitionedCall/ssd_mobile_net_v2fpn_keras_feature_extractor/FeatureMaps/top_down/smoothing_1_depthwise_conv/separable_conv2d_weights",
                    "shape": [1, 1, 128, 128],
                    "dtype": "float32"
                },
                {
                    "name": "StatefulPartitionedCall/ssd_mobile_net_v2fpn_keras_feature_extractor/FeatureMaps/top_down/smoothing_1_depthwise_conv/separable_conv2d_bn_offset",
                    "shape": [128],
                    "dtype": "float32"
                },
                {
                    "name": "StatefulPartitionedCall/WeightSharedConvolutionalBoxPredictor/PredictionTower/conv2d_1/separable_conv2d_1_weights",
                    "shape": [1, 1, 128, 128],
                    "dtype": "float32"
                },
                {
                    "name": "StatefulPartitionedCall/WeightSharedConvolutionalBoxPredictor/PredictionTower/conv2d_1/separable_conv2d_1_bn_offset",
                    "shape": [128],
                    "dtype": "float32"
                },
                {
                    "name": "StatefulPartitionedCall/WeightSharedConvolutionalBoxPredictor/PredictionTower/conv2d_3/separable_conv2d_2_weights",
                    "shape": [1, 1, 128, 128],
                    "dtype": "float32"
                },
                {
                    "name": "StatefulPartitionedCall/WeightSharedConvolutionalBoxPredictor/PredictionTower/conv2d_3/separable_conv2d_2_bn_offset",
                    "shape": [128],
                    "dtype": "float32"
                },
                {
                    "name": "StatefulPartitionedCall/WeightSharedConvolutionalBoxPredictor/PredictionTower/conv2d_2/separable_conv2d_3_weights",
                    "shape": [1, 1, 128, 128],
                    "dtype": "float32"
                },
                {
                    "name": "StatefulPartitionedCall/WeightSharedConvolutionalBoxPredictor/PredictionTower/conv2d_2/separable_conv2d_3_bn_offset",
                    "shape": [128],
                    "dtype": "float32"
                },
                {
                    "name": "StatefulPartitionedCall/WeightSharedConvolutionalBoxPredictor/PredictionTower/conv2d_1/separable_conv2d_4_weights",
                    "shape": [1, 1, 128, 128],
                    "dtype": "float32"
                },
                {
                    "name": "StatefulPartitionedCall/WeightSharedConvolutionalBoxPredictor/PredictionTower/conv2d_1/separable_conv2d_4_bn_offset",
                    "shape": [128],
                    "dtype": "float32"
                },
                {
                    "name": "StatefulPartitionedCall/WeightSharedConvolutionalBoxPredictor/PredictionTower/conv2d_0/separable_conv2d_weights",
                    "shape": [1, 1, 128, 128],
                    "dtype": "float32"
                },
                {
                    "name": "StatefulPartitionedCall/WeightSharedConvolutionalBoxPredictor/PredictionTower/conv2d_0/separable_conv2d_bn_offset",
                    "shape": [128],
                    "dtype": "float32"
                },
                {
                    "name": "StatefulPartitionedCall/WeightSharedConvolutionalBoxPredictor/PredictionTower/conv2d_2/separable_conv2d_1_weights",
                    "shape": [1, 1, 128, 128],
                    "dtype": "float32"
                },
                {
                    "name": "StatefulPartitionedCall/WeightSharedConvolutionalBoxPredictor/PredictionTower/conv2d_2/separable_conv2d_1_bn_offset",
                    "shape": [128],
                    "dtype": "float32"
                },
                {
                    "name": "StatefulPartitionedCall/WeightSharedConvolutionalBoxPredictor/PredictionTower/conv2d_3/separable_conv2d_3_weights",
                    "shape": [1, 1, 128, 128],
                    "dtype": "float32"
                },
                {
                    "name": "StatefulPartitionedCall/WeightSharedConvolutionalBoxPredictor/PredictionTower/conv2d_3/separable_conv2d_3_bn_offset",
                    "shape": [128],
                    "dtype": "float32"
                },
                {
                    "name": "StatefulPartitionedCall/WeightSharedConvolutionalBoxPredictor/PredictionTower/conv2d_2/separable_conv2d_4_weights",
                    "shape": [1, 1, 128, 128],
                    "dtype": "float32"
                },
                {
                    "name": "StatefulPartitionedCall/WeightSharedConvolutionalBoxPredictor/PredictionTower/conv2d_2/separable_conv2d_4_bn_offset",
                    "shape": [128],
                    "dtype": "float32"
                },
                {
                    "name": "StatefulPartitionedCall/WeightSharedConvolutionalBoxPredictor/PredictionTower/conv2d_1/separable_conv2d_weights",
                    "shape": [1, 1, 128, 128],
                    "dtype": "float32"
                },
                {
                    "name": "StatefulPartitionedCall/WeightSharedConvolutionalBoxPredictor/PredictionTower/conv2d_1/separable_conv2d_bn_offset",
                    "shape": [128],
                    "dtype": "float32"
                },
                {
                    "name": "StatefulPartitionedCall/WeightSharedConvolutionalBoxPredictor/PredictionTower/conv2d_3/separable_conv2d_1_weights",
                    "shape": [1, 1, 128, 128],
                    "dtype": "float32"
                },
                {
                    "name": "StatefulPartitionedCall/WeightSharedConvolutionalBoxPredictor/PredictionTower/conv2d_3/separable_conv2d_1_bn_offset",
                    "shape": [128],
                    "dtype": "float32"
                },
                {
                    "name": "StatefulPartitionedCall/WeightSharedConvolutionalBoxPredictor/PredictionTower/conv2d_3/separable_conv2d_4_weights",
                    "shape": [1, 1, 128, 128],
                    "dtype": "float32"
                },
                {
                    "name": "StatefulPartitionedCall/WeightSharedConvolutionalBoxPredictor/PredictionTower/conv2d_3/separable_conv2d_4_bn_offset",
                    "shape": [128],
                    "dtype": "float32"
                },
                {
                    "name": "StatefulPartitionedCall/WeightSharedConvolutionalBoxPredictor/PredictionTower/conv2d_2/separable_conv2d_weights",
                    "shape": [1, 1, 128, 128],
                    "dtype": "float32"
                },
                {
                    "name": "StatefulPartitionedCall/WeightSharedConvolutionalBoxPredictor/PredictionTower/conv2d_2/separable_conv2d_bn_offset",
                    "shape": [128],
                    "dtype": "float32"
                },
                {
                    "name": "StatefulPartitionedCall/WeightSharedConvolutionalBoxPredictor/PredictionTower/conv2d_3/separable_conv2d_weights",
                    "shape": [1, 1, 128, 128],
                    "dtype": "float32"
                },
                {
                    "name": "StatefulPartitionedCall/WeightSharedConvolutionalBoxPredictor/PredictionTower/conv2d_3/separable_conv2d_bn_offset",
                    "shape": [128],
                    "dtype": "float32"
                },
                {
                    "name": "ConstantFolding/StatefulPartitionedCall/Postprocessor/BatchMultiClassNonMaxSuppression/stack_12_const_axis",
                    "shape": [],
                    "dtype": "int32"
                },
                {
                    "name": "ConstantFolding/StatefulPartitionedCall/Postprocessor/BatchMultiClassNonMaxSuppression/PadOrClipBoxList/Slice_3/size_const_axis",
                    "shape": [],
                    "dtype": "int32"
                },
                {
                    "name": "ConstantFolding/StatefulPartitionedCall/Postprocessor/BatchMultiClassNonMaxSuppression/PadOrClipBoxList/Slice_5/size_const_axis",
                    "shape": [],
                    "dtype": "int32"
                },
                {
                    "name": "ConstantFolding/StatefulPartitionedCall/Postprocessor/BatchMultiClassNonMaxSuppression/PadOrClipBoxList/Slice_1/size_const_axis",
                    "shape": [],
                    "dtype": "int32"
                },
                {
                    "name": "ConstantFolding/StatefulPartitionedCall/Postprocessor/BatchMultiClassNonMaxSuppression/PadOrClipBoxList/stack_3/values_1_const_axis",
                    "shape": [],
                    "dtype": "int32"
                },
                {
                    "name": "ConstantFolding/StatefulPartitionedCall/Postprocessor/BatchMultiClassNonMaxSuppression/PadOrClipBoxList/stack_5/values_1_const_axis",
                    "shape": [],
                    "dtype": "int32"
                },
                {
                    "name": "ConstantFolding/StatefulPartitionedCall/Postprocessor/BatchMultiClassNonMaxSuppression/PadOrClipBoxList/stack_1/values_1_const_axis",
                    "shape": [],
                    "dtype": "int32"
                },
                {
                    "name": "ConstantFolding/StatefulPartitionedCall/Postprocessor/BatchMultiClassNonMaxSuppression/stack_11_const_axis",
                    "shape": [],
                    "dtype": "int32"
                },
                {
                    "name": "ConstantFolding/StatefulPartitionedCall/Postprocessor/BatchMultiClassNonMaxSuppression/stack_6_const_axis",
                    "shape": [],
                    "dtype": "int32"
                },
                {
                    "name": "ConstantFolding/StatefulPartitionedCall/Postprocessor/BatchMultiClassNonMaxSuppression/stack_10_const_axis",
                    "shape": [],
                    "dtype": "int32"
                },
                {
                    "name": "ConstantFolding/StatefulPartitionedCall/Postprocessor/BatchMultiClassNonMaxSuppression/stack_8_const_axis",
                    "shape": [],
                    "dtype": "int32"
                },
                {
                    "name": "ConstantFolding/StatefulPartitionedCall/Postprocessor/BatchMultiClassNonMaxSuppression/stack_7_const_axis",
                    "shape": [],
                    "dtype": "int32"
                },
                {"name": "__inference_map_while_cond_9291_17452/map/while/Less/y", "shape": [], "dtype": "int32"},
                {"name": "__inference_map_while_body_9292_23220/map/while/add/y", "shape": [], "dtype": "int32"},
                {
                    "name": "__inference_map_while_body_9292_23220/map/while/Preprocessor/mul/x",
                    "shape": [],
                    "dtype": "float32"
                },
                {
                    "name": "__inference_map_while_body_9292_23220/map/while/TensorArrayV2Read/TensorListGetItem/element_shape",
                    "shape": [3],
                    "dtype": "int32"
                },
                {
                    "name": "__inference_map_while_body_9292_23220/map/while/strided_slice/stack",
                    "shape": [4],
                    "dtype": "int32"
                },
                {
                    "name": "__inference_map_while_body_9292_23220/map/while/strided_slice/stack_1",
                    "shape": [4],
                    "dtype": "int32"
                },
                {
                    "name": "__inference_map_while_body_9292_23220/map/while/strided_slice/stack_2",
                    "shape": [4],
                    "dtype": "int32"
                },
                {
                    "name": "__inference_map_while_body_9292_23220/map/while/Preprocessor/sub/y",
                    "shape": [],
                    "dtype": "float32"
                },
                {
                    "name": "__inference_map_while_body_9292_23220/map/while/Preprocessor/ResizeImage/resize/ExpandDims/dim",
                    "shape": [],
                    "dtype": "int32"
                },
                {
                    "name": "__inference_map_while_body_9292_23220/map/while/Preprocessor/ResizeImage/stack",
                    "shape": [2],
                    "dtype": "int32"
                },
                {
                    "name": "__inference_map_while_body_9292_23220/map/while/strided_slice_1/stack",
                    "shape": [1],
                    "dtype": "int32"
                },
                {
                    "name": "__inference_map_while_body_9292_23220/map/while/strided_slice_1/stack_1",
                    "shape": [1],
                    "dtype": "int32"
                },
                {
                    "name": "__inference_map_while_body_9292_23220/map/while/strided_slice_1/stack_2",
                    "shape": [1],
                    "dtype": "int32"
                },
                {
                    "name": "__inference_map_while_body_9292_23220/map/while/strided_slice_2",
                    "shape": [3],
                    "dtype": "int32"
                },
                {"name": "__inference_map_while_body_9292_23220/map/while/add_1/y", "shape": [], "dtype": "int32"},
                {
                    "name": "__inference_map_while_body_9292_23220/ConstantFolding/map/while/Preprocessor/stack_const_axis",
                    "shape": [],
                    "dtype": "int32"
                }
            ]
        }
    ]
}
